models/model_03_CDMS-NNVAE/trained-model.pt (torch, 55353 bytes, 36 tensors)

nn.Linear0.weight f4 [32, 20]
0	0xbfca9d65	-1.5829283
1	0xbe48a490	-0.19594026
2	0x3fa4f7b3	1.2888092
3	0x3f20fc6e	0.6288518
4	0x3e886c1b	0.26644978
5	0xbea636c2	-0.32463652
6	0xbf9f2c59	-1.2435409
7	0x3f2499c7	0.64297146
8	0x3eece586	0.46268862
9	0xbe0b2e77	-0.13591944
10	0x3d23d1f7	0.03999516
11	0xbd20c5a0	-0.03925097
12	0x3d3c74bc	0.046009764
13	0xbebd0ac1	-0.36922267
14	0xbf4dfe53	-0.8046619
15	0xbedcf87d	-0.43158332
16	0xbf18b66a	-0.5965334
17	0x3f7359ce	0.95058906
18	0xbe2138da	-0.15744343
19	0x3d485fc8	0.04891947
20	0x3e80e847	0.25177214
21	0x3c2825a2	0.010262879
22	0x3ef8e255	0.48610178
23	0x3e9a4eea	0.30138332
24	0x3f0c86f4	0.5489342
25	0x3f171fbb	0.5903279
26	0xbed069cb	-0.40705714
27	0x3db2e2f7	0.08734696
28	0x3eac9236	0.337053
29	0xbe810215	-0.251969
30	0xbe91ce17	-0.28477547
31	0xbe7c4439	-0.246354
32	0x3d21ceee	0.039503984
33	0xbf023601	-0.50863653
34	0x3ecede2c	0.4040388
35	0xbec4ce4f	-0.3843865
36	0xbf5b828a	-0.8574606
37	0x3f2cdb3e	0.6752204
38	0xbe3b3825	-0.18283136
39	0x3deaeb80	0.11470699
40	0x3f6b1f8d	0.9184502
41	0x3f0068fc	0.50160193
42	0xc015a631	-2.3382685
43	0xbf5921b6	-0.84817064
44	0x3fc3bd1b	1.5292085
45	0x3f29c3b6	0.66314256
46	0x3fb2edd9	1.3978835
47	0x3f1cc876	0.6124338
48	0x3f1ae7a2	0.60509694
49	0xbe7aa799	-0.24477996
50	0x3e3f4ac0	0.18680859
51	0xbf32540a	-0.69659483
52	0x400b4a18	2.1763973
53	0x3fed21b4	1.852591
54	0x3fdc651e	1.7218359
55	0x4013c21e	2.308723
56	0x3fc00ed4	1.5004525
57	0x3eca9a86	0.39571017
58	0x3fc504e0	1.5392113
59	0xbf837270	-1.0269299
60	0x3d172eda	0.036909916
61	0x3e352a14	0.17691833
62	0x3e2b5ecd	0.16735382
63	0x3e62f350	0.22163129
64	0xbf085791	-0.53258616
65	0xbee2fa4c	-0.44331586
66	0x3ece6e96	0.40318745
67	0x3d7f46fa	0.062323548
68	0x3ccde602	0.02513409
69	0xbd012511	-0.03152949
70	0x3db6e6f4	0.089307696
71	0xbe16b7d6	-0.14718565
72	0x3e5c5b5d	0.21519227
73	0x3df964b8	0.12177414
74	0xbea29348	-0.31752992
75	0xbc4a40f8	-0.012344591
76	0xbe2851d3	-0.16437463
77	0xbd4701d3	-0.048585724
78	0x3e685871	0.22689988
79	0x3efa4993	0.48884258
80	0xbebe880c	-0.3721317
81	0xbe8d72ac	-0.2762655
82	0xbe15ca8d	-0.14628048
83	0x3e912c40	0.28354073
84	0x3d127ce8	0.03576365
85	0xbe635086	-0.22198686
86	0xbe91129a	-0.28334504
87	0xbe63abf3	-0.22233562
88	0x3e682a8e	0.22672483
89	0xbd695f6c	-0.056975767
90	0xbdf962e4	-0.12177065
91	0xbd68ef29	-0.056868706
92	0xbd7ee5f4	-0.06223102
93	0x3cd53ec9	0.026030915
94	0xbe9d3fbe	-0.30712694
95	0x3e43eca0	0.19133234
96	0xbead58f1	-0.3385692
97	0x3e6bc660	0.23024893
98	0x3d2ba294	0.041903093
99	0xbed9bd7f	-0.42527387
100	0x3f8aecb5	1.0853487
101	0x3e6c5383	0.23078732
102	0x3dc6b8ec	0.0970324
103	0xbe27bf54	-0.1638158
104	0xbe52af8f	-0.20574783
105	0x3ed45754	0.41472876
106	0x3f33a550	0.7017412
107	0x3ea9e9db	0.3318623
108	0x3e8a42d5	0.27004114
109	0xbe1da1f3	-0.1539381
110	0xbe94ab47	-0.29036924
111	0xbe8ac9b3	-0.2710701
112	0xbcca8c7f	-0.024725197
113	0x3e24e6f9	0.16103734
114	0x3e99cc3e	0.30038637
115	0xbdad4587	-0.08460527
116	0x3eda5c35	0.42648473
117	0x3ecd44fa	0.40091687
118	0x3eb9a4b7	0.3625848
119	0x3ca44bd8	0.020055696
120	0x3e0a0940	0.13480091
121	0x3f5efdef	0.8710622
122	0x3eba7045	0.3641378
123	0x3e5b7df4	0.21434766
124	0xbf2413c2	-0.6409265
125	0xbe9ad58e	-0.30241054
126	0x3d953e5e	0.07287286
127	0xbe2fdbbe	-0.17173669
128	0x3e43b3bd	0.19111533
129	0xbe90045f	-0.28128335
130	0xbe476b9a	-0.1947464
131	0xbd8eb13f	-0.06967401
132	0x3c99522f	0.018715946
133	0xbe0c5398	-0.13703763
134	0xbdc4cd4c	-0.0960947
135	0xbf0fb349	-0.5613294
136	0x3dd9c2c0	0.10632849
137	0xbc57bb91	-0.013167278
138	0x3ec5565c	0.3854245
139	0x3f9335af	1.1500758
140	0xbe7e15fb	-0.24813072
141	0xbd979c70	-0.07402885
142	0x3ea9504f	0.33069083
143	0x3e48cff2	0.19610575
144	0x3e4649e9	0.19364132
145	0x3cd7a3d9	0.026323246
146	0x3d693c78	0.056942433
147	0xbd04085b	-0.03223453
148	0x3e56ef16	0.20989642
149	0x3d44a629	0.048010025
150	0xbe0d5287	-0.13801013
151	0x3cd2f42a	0.025751192
152	0xbd66012b	-0.056153458
153	0x3d4a50ba	0.049393393
154	0xbcf822d3	-0.030290043
155	0xbe8d6d60	-0.2762251
156	0xbe599bd5	-0.21250851
157	0xbe8ed3f4	-0.27896082
158	0xbb31d450	-0.0027134605
159	0xbe89fb9b	-0.26949772
160	0xbfcd88f9	-1.6057426
161	0x3efd23f1	0.49441484
162	0x3fa40660	1.2814445
163	0x3f9c3cff	1.2206115
164	0xbf7ec74a	-0.9952284
165	0xbf29e197	-0.6635985
166	0xbf0c8ad5	-0.5489934
167	0xbeaa26ba	-0.3323267
168	0x3dd5100e	0.10403453
169	0xbd1b18f8	-0.03786561
170	0xbcd724dc	-0.026262693
171	0x3efda547	0.4954016
172	0xbe8a5886	-0.27020663
173	0x3dfdbd29	0.12389595
174	0xbf94d6e6	-1.1628082
175	0xbf2a5911	-0.66542155
176	0x3c8b0f42	0.016975049
177	0xbf0dfab8	-0.5546069
178	0xbe3dcfdc	-0.18536323
179	0x3f9f935e	1.2466848
180	0xbe406e53	-0.18792085
181	0x3ee730cb	0.45154414
182	0xbe649756	-0.22323355
183	0x3d846b76	0.06465809
184	0xbed1198a	-0.40839797
185	0xbe820541	-0.25394633
186	0x3ecdfc3d	0.40231505
187	0x3e2ccfe6	0.16876182
188	0x3ec9a078	0.3938024
189	0xbea592d3	-0.3233858
190	0xbed1880d	-0.4092411
191	0x3d80c682	0.06287862
192	0x3e90157e	0.28141397
193	0x3f04ee17	0.51925796
194	0x3cc240e2	0.02371258
195	0xbda05d5a	-0.078303054
196	0x3de6ef38	0.11276096
197	0x3e20c870	0.15701461
198	0x3f364ef3	0.71214217
199	0x3f15cf7f	0.5851974
200	0x3ee6e833	0.4509903
201	0x3ea4667f	0.32109448
202	0x3ead957f	0.3390312
203	0x3eef06ce	0.4668488
204	0xbefd2a36	-0.49446267
205	0xbc745d12	-0.014914768
206	0xbd8965f0	-0.06708896
207	0x3e27fe85	0.16405685
208	0x3f0531d7	0.52029175
209	0xbe9ac628	-0.30229306
210	0xbe52560d	-0.20540638
211	0xbe45eb8f	-0.1932814
212	0xbe3e6147	-0.18591796
213	0xbea81cce	-0.32834476
214	0xbf1f9d5c	-0.62349486
215	0xbf279e8d	-0.65476304
216	0xbee6282e	-0.4495253
217	0x3eb004c7	0.34378645
218	0xbe822a3a	-0.2542284
219	0x3f709d25	0.93989784
220	0xbecc2292	-0.39870125
221	0x3f34755a	0.70491564
222	0x3fa9b2bd	1.3257672
223	0x3fbb9d62	1.4657404
224	0xbf0a2a4c	-0.5397079
225	0x3cacfd04	0.021116741
226	0xbdf957fb	-0.12174984
227	0x3c7d91fc	0.0154767
228	0x3e9126d4	0.28349936
229	0xbd919cfc	-0.071100205
230	0x3dc62f8a	0.09677036
231	0xbd290f7c	-0.041274533
232	0x3e0986d0	0.13430333
233	0x3b9d3e8f	0.0047987173
234	0xbfd4759b	-1.659839
235	0xbf75dba3	-0.96038264
236	0xbd55884e	-0.052131943
237	0x3b37975a	0.0028013797
238	0xbf034dd4	-0.5129063
239	0x3fa527ec	1.2902808
240	0x3df6e797	0.12055891
241	0x3cae32d6	0.021264475
242	0xbeedadb3	-0.46421584
243	0xbe8ba8ef	-0.27277324
244	0x3e4d19e6	0.2002941
245	0xbca61c76	-0.020277243
246	0x3e58fb47	0.21189605
247	0xbe5ad6de	-0.21371028
248	0xbc901b4a	-0.017591137
249	0xbd879ef0	-0.06622112
250	0xbd64ce5d	-0.055860866
251	0x3d2cb9d8	0.042169422
252	0xbdaee02e	-0.08538853
253	0x3e8578a0	0.26068592
254	0x3d45b257	0.04826578
255	0x3ed27193	0.41102275

nn.Linear0.bias f4 [32]
0	0xbedf59e7	-0.43623278
1	0xbf3b5a94	-0.73185086
2	0xc00f8247	-2.2423265
3	0x3e3e9518	0.18611562
4	0x3ea0c443	0.31399736
5	0x3f53ac90	0.82685184
6	0x3ed1a04d	0.40942612
7	0x3e443396	0.19160303
8	0xbdc2f038	-0.09518474
9	0x3ead6e1d	0.33873072
10	0x3ef32e08	0.47496057
11	0xbe983faf	-0.29736087
12	0xbeb38847	-0.3506491
13	0xbe3519c7	-0.17685615
14	0xbf9a8a8b	-1.207353
15	0x3e9f6a07	0.3113558
16	0x3eac93c4	0.33706486
17	0xbe6648ee	-0.22488758
18	0x3fd711db	1.6802324
19	0x3f0c23fb	0.547424
20	0xbeb4bca1	-0.35300162
21	0x3e23abb6	0.15983471
22	0xbf069107	-0.52565044
23	0x3ead341d	0.33828822
24	0x3e719c91	0.23594882
25	0x3fa049b6	1.2522495
26	0xbfacb675	-1.3493181
27	0x3f25941f	0.6467914
28	0x3d8ac887	0.06776529
29	0xbd309173	-0.04310746
30	0x3f38d940	0.722065
31	0xbf294615	-0.6612256

nn.Linear1.weight f4 [32, 32]
0	0x3d5185ea	0.0511531
1	0xbdd86c53	-0.10567536
2	0xbe253c2f	-0.1613624
3	0xbe306ec7	-0.17229758
4	0xbb49e9eb	-0.0030809592
5	0x3e049d3c	0.12950605
6	0x3d96ef69	0.073698826
7	0xbd336b42	-0.04380346
8	0xbdf7867b	-0.12086197
9	0xbec6c60e	-0.3882298
10	0x3e2f7d25	0.17137583
11	0xbd8f5649	-0.069988795
12	0xbe74d6c2	-0.23910049
13	0xbdd7cfe2	-0.105376974
14	0xbe1c70b1	-0.15277363
15	0xbe400338	-0.18751228
16	0xbea41e19	-0.32054213
17	0xbe820e0c	-0.25401342
18	0x3d8d2f2c	0.06893763
19	0xbc91256d	-0.017718041
20	0xbeb494c7	-0.35269758
21	0x3dcdaf71	0.100432284
22	0x3e108375	0.14112647
23	0xbe8f0ff8	-0.2794187
24	0xbdf5b730	-0.11997831
25	0xbdddd71b	-0.10832044
26	0xbe9eb954	-0.3100077
27	0xbd131fe1	-0.035919074
28	0x3d1f831e	0.038943402
29	0xbcd74b56	-0.02628104
30	0x3d1e476f	0.038642343
31	0xbef33b28	-0.4750607
32	0x3ddd5b60	0.10808444
33	0x3ebd4de2	0.36973482
34	0xbf032da0	-0.51241493
35	0xbe1e655a	-0.1546835
36	0x3e86018c	0.26173055
37	0x3eeb072e	0.45903915
38	0x3f0286c9	0.50986916
39	0x3efd9b11	0.4953237
40	0x3f1cc5ef	0.6123952
41	0x3e3ca94d	0.18423958
42	0x3f497fb6	0.78710496
43	0x3f12a008	0.5727544
44	0xbd8cba56	-0.06871478
45	0x3efff9df	0.49995324
46	0xbe88325c	-0.2660092
47	0x3ea37575	0.3192555
48	0x3de9b3d7	0.11411255
49	0x3ec148aa	0.3775075
50	0x3f258723	0.6465933
51	0x3f0c2f96	0.5476011
52	0xbf324c8c	-0.6964805
53	0x3efa546e	0.4889254
54	0x3eaa4c81	0.33261493
55	0xbe3db60a	-0.18526474
56	0x3efa4993	0.48884258
57	0x3d695fa7	0.056975987
58	0xbf118a21	-0.56851393
59	0x3f3c1edd	0.73484594
60	0x3d08861c	0.03333102
61	0x3e452294	0.19251472
62	0x3f05eed9	0.5231758
63	0xbd1494e6	-0.036274813
64	0xbf363d8a	-0.7118765
65	0xbe35fadd	-0.17771478
66	0x3ec63b74	0.38717234
67	0xbd4aacb0	-0.049481094
68	0xbee0e557	-0.43924972
69	0x3e9c37e8	0.30511403
70	0x3e449d83	0.19200711
71	0xbe20e4a9	-0.15712227
72	0xbd89132f	-0.06693112
73	0xbd70711d	-0.058701623
74	0x3e948e75	0.29014936
75	0xbe9a95ea	-0.301925
76	0x3e1ab966	0.15109786
77	0xbeb0301b	-0.34411702
78	0x3d2c93aa	0.04213301
79	0x3dae5189	0.08511645
80	0xbd4ae7f4	-0.049537614
81	0xbe61874d	-0.2202427
82	0xbead7a4b	-0.33882365
83	0x3ee308bf	0.4434261
84	0xbe6e9170	-0.23297668
85	0x3e4fe62a	0.20302644
86	0xbde880de	-0.113527045
87	0xbde3065f	-0.110851996
88	0x3d3af5f4	0.045644715
89	0x3f121b2c	0.5707271
90	0xbdb96d95	-0.09054104
91	0x3e5375f5	0.20650466
92	0xbe22f7eb	-0.15914886
93	0xbd2683ec	-0.040653154
94	0x3ee31ce8	0.4435799
95	0xbe4a0400	-0.19728088
96	0x3d7b040c	0.061283156
97	0xbe0f14c9	-0.13972773
98	0xbe9f29ed	-0.31086674
99	0xbed1bf51	-0.40966275
100	0x3e2724c5	0.1632262
101	0x3dbcef9d	0.0922539
102	0x3bae400c	0.0053176936
103	0x3e03ec0a	0.1288301
104	0xbdc39ff7	-0.09551995
105	0xbea2a0cd	-0.31763306
106	0x3c8ad78b	0.016948482
107	0xbdc00156	-0.09375255
108	0xbe056fdb	-0.1303095
109	0x3da91eca	0.08257826
110	0xbe48e2d4	-0.19617778
111	0xbeb0a9aa	-0.34504443
112	0xbf0e8bcb	-0.5568206
113	0x3d1acc3b	0.037792426
114	0x3c515ae2	0.012778016
115	0xbdc95516	-0.09830682
116	0xbe4b56ed	-0.19857378
117	0x3c687648	0.014188357
118	0x3e1b5f8d	0.15173168
119	0xbded36f2	-0.115827456
120	0xbe56c71b	-0.2097439
121	0xbeeb6ab0	-0.45979834
122	0xbea453dc	-0.3209523
123	0xbe304ddd	-0.17217202
124	0xbe6e2552	-0.23256424
125	0xbdd64471	-0.10462273
126	0x3e2625e6	0.16225395
127	0xbecf5598	-0.4049499
128	0xbd185f65	-0.03720035
129	0xbe881b79	-0.2658346
130	0x3f6ebe79	0.9325939
131	0x3e3dc1d0	0.18530965
132	0x3dac7538	0.08420795
133	0xbdea4030	-0.11438024
134	0xbeb8ae6c	-0.36070573
135	0xbe17540c	-0.14778155
136	0xbf592748	-0.84825563
137	0x3e6ba910	0.23013711
138	0xbf1f910c	-0.623307
139	0xbf8a5faf	-1.081045
140	0x3eec654a	0.46171027
141	0xbe8db2d4	-0.27675498
142	0xbe74e7eb	-0.23916595
143	0xbd2c405e	-0.042053573
144	0x3e8ca75a	0.2747143
145	0xbf6ac171	-0.9170142
146	0xbfaa21f9	-1.3291618
147	0xbe090413	-0.1338046
148	0x3e35aebc	0.17742437
149	0xbd81abb2	-0.063315764
150	0xbd592880	-0.05301714
151	0x3e0e34ab	0.13887279
152	0xbe661f20	-0.22472811
153	0x3ea2cc54	0.31796515
154	0xbe813d3a	-0.25242025
155	0xbdd32210	-0.10309231
156	0xbd8d45ba	-0.06898065
157	0xbf050c09	-0.5197149
158	0x3d2619ed	0.04055207
159	0xbd47ad3a	-0.048749186
160	0xbe5f1a47	-0.21787368
161	0xbe02f77a	-0.12789717
162	0x3eab4876	0.3345372
163	0xbc0472b5	-0.008083989
164	0xbeedbecc	-0.4643463
165	0xbf37ea60	-0.71842
166	0xbefbf547	-0.4921057
167	0xbefa8e9f	-0.48936936
168	0xbefbd4ca	-0.49185783
169	0xbe9e1da1	-0.3088198
170	0xbf30c64f	-0.69052595
171	0xbefb33ea	-0.49063045
172	0x3e20eac2	0.15714553
173	0xbe91a7d1	-0.28448346
174	0x3f078493	0.5293667
175	0xbe81f695	-0.2538344
176	0xbde3edc1	-0.11129332
177	0xbeb8229a	-0.359639
178	0xbf2fd227	-0.6868004
179	0xbf2c5b3b	-0.67326707
180	0x3f5dd971	0.86659914
181	0xbe816559	-0.25272635
182	0xbd44a0da	-0.048004963
183	0x3e2dc1b4	0.16968423
184	0xbebf222a	-0.37330753
185	0x3deb2a9b	0.11482736
186	0x3f52ac3f	0.82294077
187	0xbf46f470	-0.7771673
188	0xbe747757	-0.2387365
189	0xbed6f74c	-0.41985548
190	0xbf131af1	-0.57462984
191	0xbe4e66cc	-0.20156401
192	0x3e801c66	0.25021666
193	0x3ec805ec	0.39067018
194	0xbf072143	-0.5278513
195	0xbb27d8f7	-0.00256115
196	0xbe3747ec	-0.1789853
197	0xbe5f12a4	-0.21784455
198	0xbe3e50a4	-0.1858545
199	0xbdb8dcf6	-0.0902652
200	0x3e023379	0.12714948
201	0x3d02a8f3	0.031899404
202	0x3d618199	0.055055235
203	0x3db37a2c	0.08763537
204	0xbe7fb01e	-0.24969527
205	0x3e58d5dc	0.21175331
206	0x3eac1307	0.33608267
207	0x3e1cd266	0.15314636
208	0x3da8d035	0.08242837
209	0x3e9f99cc	0.31172025
210	0x3e504350	0.20338178
211	0x3d3119b6	0.04323741
212	0x3d5cf719	0.05394659
213	0xbe7c9a36	-0.24668202
214	0xbe24e406	-0.16102609
215	0xbe593084	-0.21209913
216	0xbe06a509	-0.13148893
217	0xbe6da218	-0.23206365
218	0x3da7939e	0.081824526
219	0xbe52c8cb	-0.20584409
220	0x3e3ca5a2	0.18422559
221	0xbc319090	-0.010837689
222	0xbedbd8a6	-0.42938727
223	0x3e9a1cc1	0.30100062
224	0x3e580b94	0.21098167
225	0x3e821e12	0.25413567
226	0xbe769b82	-0.24082759
227	0xbeeb0bf4	-0.45907557
228	0x3da69f0b	0.08135804
229	0x3dec4307	0.11536222
230	0xbdee1e22	-0.11626841
231	0x3e4c8641	0.19973089
232	0xbc48463a	-0.012223775
233	0xbeef79fd	-0.46772757
234	0xbe8507c9	-0.25982502
235	0xbe3e3a48	-0.1857692
236	0xbdd376bf	-0.103253834
237	0xbd4c2f02	-0.049849518
238	0x3d53739f	0.051623937
239	0xbeaca2af	-0.33717868
240	0xbee8ef33	-0.45494995
241	0xbe800e42	-0.25010878
242	0x3e236fcb	0.15960614
243	0xbe3bd4c7	-0.18342887
244	0xbf0d04f7	-0.550857
245	0xbc4655f6	-0.012105456
246	0x3e936854	0.28790534
247	0xbf070d8c	-0.52755046
248	0xbead683f	-0.33868596
249	0xbe9fa961	-0.31183913
250	0xbecead01	-0.40366367
251	0xbe50d782	-0.2039471
252	0x3cb88a84	0.022526987
253	0x3c2cd0f2	0.010547863
254	0x3eadf75f	0.33977792
255	0xbf208cbf	-0.6271476

nn.Linear1.bias f4 [32]
0	0xbd48c8c5	-0.049019594
1	0xbdb055a2	-0.08610083
2	0xbd8dc9bf	-0.06923246
3	0xbc81d87a	-0.015850294
4	0x3dae9662	0.08524777
5	0xbe129e81	-0.14318277
6	0xbe810a29	-0.25203064
7	0xbd7061a5	-0.05868687
8	0x3dc60c61	0.0967033
9	0x3d950227	0.07275801
10	0xbe0f906d	-0.14019938
11	0x3cce81f3	0.025208449
12	0x3e4d86de	0.20070979
13	0xbd1e73f1	-0.03868479
14	0xbea3b7ed	-0.31976262
15	0x3e41044a	0.18849292
16	0xbdba235a	-0.09088774
17	0x3e2b73f4	0.16743451
18	0xbe0582f2	-0.13038233
19	0x3e0ffc01	0.14060976
20	0xbe295e0c	-0.16539782
21	0x3d09a34f	0.03360301
22	0x3ddb0b21	0.10695482
23	0x3c2e5eac	0.010642689
24	0xbcaf1195	-0.021370688
25	0xbc5d0e40	-0.013492167
26	0x3e3319e5	0.17490347
27	0x3d52acfe	0.05143451
28	0x3df1718e	0.11789237
29	0xbdbbf937	-0.09178393
30	0xbe247a0f	-0.16062187
31	0xbdc5ae05	-0.09652332

nn.Linear2.weight f4 [6, 32]
0	0x3e9d6c5a	0.30746728
1	0x3ed9e22f	0.42555377
2	0x3dc08b1f	0.09401535
3	0x3e91840e	0.28421062
4	0xbf229069	-0.635016
5	0xbf893e17	-1.0722073
6	0xbde96dfc	-0.11397931
7	0x3ecb8096	0.3974654
8	0x3e6b1269	0.22956242
9	0xbeddf177	-0.43348286
10	0x3ed4f4ca	0.4159301
11	0x3f0ac15f	0.5420131
12	0xbe995619	-0.299485
13	0xbb99b95b	-0.0046912855
14	0x3d77a027	0.060455468
15	0x3e5435a4	0.20723587
16	0xbe26f85e	-0.16305682
17	0xbef57658	-0.47941852
18	0xbe838e89	-0.25694683
19	0xbe610b89	-0.21977057
20	0xbc4fdc84	-0.012686852
21	0xbf1752f8	-0.59110975
22	0xbf851d0f	-1.0399493
23	0xbea94a93	-0.33064708
24	0x3e8b5b9a	0.27218324
25	0xbec3d984	-0.3825189
26	0xbee210a1	-0.44153312
27	0xbe189929	-0.14902176
28	0xbd6eb7fe	-0.058280937
29	0x3ed62110	0.418221
30	0x3d6bcc84	0.05756809
31	0x3e8c15f2	0.27360493
32	0xbe0bd3cb	-0.13655011
33	0x3e2887b6	0.1645802
34	0xbc257126	-0.0100977775
35	0xbe20f6f6	-0.15719208
36	0xbe23e88e	-0.16006681
37	0x3caf313e	0.021385785
38	0x3d12d5bd	0.035848368
39	0xbdc9d171	-0.09854401
40	0x3dc16e49	0.09444863
41	0x3d2523e9	0.04031745
42	0x3d0721ef	0.032991346
43	0x3ddd38a0	0.10801816
44	0xbe17e194	-0.14832145
45	0xbd7d1a75	-0.06179281
46	0xbc641901	-0.013921977
47	0x3d726d9a	0.059186555
48	0x3e1fe4d0	0.15614629
49	0xbd89e903	-0.067338966
50	0xbd55a294	-0.052157
51	0xbe042baf	-0.12907289
52	0x3d0e0393	0.034671377
53	0x3dc2a1c4	0.095035106
54	0x3da78c71	0.08181084
55	0x3cc82a7f	0.024434326
56	0x3b5e4199	0.003391361
57	0x3de5ded7	0.11224144
58	0xbd880653	-0.06641831
59	0xbc81eba7	-0.015859438
60	0x3dc36d8c	0.09542379
61	0xbd8edb1f	-0.06975388
62	0xbc720720	-0.014772207
63	0xbdb8f95f	-0.09031939
64	0x3d058dd5	0.032605965
65	0x3d02cad1	0.031931702
66	0xbd63f0b7	-0.055649485
67	0xbe1f261b	-0.1554188
68	0x3df7c87a	0.12098785
69	0x3a93616d	0.0011244245
70	0xbde371b3	-0.11105671
71	0xbce2ba58	-0.027676746
72	0xbcd30954	-0.025761284
73	0xba7c38a9	-0.000962148
74	0x3e66ca5d	0.22538133
75	0x3e223545	0.15840633
76	0x3d05c842	0.032661684
77	0xbdbe4ae0	-0.09291625
78	0x3cd2a801	0.025714876
79	0xbdb49a2e	-0.0881847
80	0xbc70d80f	-0.01469995
81	0xbc77b5b7	-0.015119008
82	0xbdc3e906	-0.0956593
83	0xbd5dbc52	-0.054134674
84	0x3deef036	0.1166691
85	0xbe055ba7	-0.13023244
86	0x3db1580a	0.0865937
87	0x3cd3ca56	0.025853317
88	0xbe14748e	-0.14497587
89	0x3d9226d3	0.071363114
90	0x3c1ead05	0.009684806
91	0xbcd8d9fe	-0.026471134
92	0x3de3f70a	0.11131103
93	0xba5fec6f	-0.0008542006
94	0x3960460c	0.00021388399
95	0x3e36f778	0.1786784
96	0x3e8ed50c	0.27896917
97	0x3db15b78	0.086600244
98	0xbe703607	-0.2345811
99	0x3f1d6fe8	0.6149888
100	0x3f16bc4c	0.5888107
101	0xbf4f27fb	-0.8092038
102	0xbdc7af3d	-0.09750221
103	0x3f2c1f32	0.672351
104	0xbd05b4c2	-0.032643087
105	0x3d7d023b	0.061769705
106	0x3f6e46da	0.9307686
107	0xbe87f4e7	-0.26554033
108	0xbeea7204	-0.45790112
109	0xbf155663	-0.5833494
110	0xbeeff00a	-0.46862823
111	0x3d3989f1	0.045297567
112	0xbefa52db	-0.4889134
113	0xbed953d8	-0.4244678
114	0xbea66a0a	-0.32502776
115	0xbe43de6b	-0.19127814
116	0xbf68dc75	-0.9096139
117	0x3e21a6e6	0.15786323
118	0xbf2ad9df	-0.66738695
119	0xbf1eb8c2	-0.6200067
120	0xbe9bb7c6	-0.30413646
121	0x3d82e200	0.06390762
122	0xbe6b5aba	-0.22983828
123	0xbf056547	-0.5210766
124	0xbf0c03e0	-0.5469341
125	0xbe63e48a	-0.2225515
126	0xbf9ab54a	-1.2086575
127	0xbebfb702	-0.3744431
128	0x3d828db0	0.06374681
129	0xbd4ab3c3	-0.04948784
130	0x3cb92bb7	0.022603853
131	0x3b918109	0.004440431
132	0xbda1e598	-0.0790512
133	0x3d26d6e0	0.040732265
134	0x3d10625a	0.035250045
135	0x3d0a43dd	0.033756126
136	0x3d672d9f	0.056439992
137	0x3c2b5ac9	0.010458657
138	0xbcd6661e	-0.02617174
139	0x3c0e72f6	0.008694401
140	0xbd552347	-0.052035596
141	0xbcd7246b	-0.026262483
142	0xbb0bbe3a	-0.00213231
143	0x3c9e071d	0.019290501
144	0x3dd15bce	0.102225885
145	0xbb0572a1	-0.0020362514
146	0x3d1313ee	0.03590768
147	0x3d21ccac	0.03950183
148	0xbcd3351c	-0.02578216
149	0xbdf56c57	-0.11983555
150	0xbdf530d8	-0.11972207
151	0xbd077225	-0.03306784
152	0xbd74ae89	-0.059736762
153	0xbcfeb0a5	-0.03109009
154	0x3dba71cf	0.091037385
155	0x3cc53f95	0.02407817
156	0xbc13be47	-0.009017534
157	0xbdba6252	-0.09100784
158	0x3c35ae9f	0.011088996
159	0xbd807c16	-0.062736675
160	0xbdb68efa	-0.08913989
161	0x3b14c6e2	0.0022701551
162	0xbd0e08f9	-0.034676526
163	0xbd83bfee	-0.06433092
164	0xbd6ca56a	-0.05777494
165	0xbd2049fc	-0.039133057
166	0x3d0995f2	0.033590265
167	0xbc373a47	-0.011183328
168	0x3daa93bf	0.083289616
169	0x39912023	0.000276805
170	0xbc35964b	-0.011083196
171	0x3d897b1f	0.067129366
172	0xbd4f69dc	-0.050638065
173	0xbd3f4420	-0.04669583
174	0x3cebef13	0.028800523
175	0xbce18e1b	-0.027533581
176	0x3c5797e0	0.013158768
177	0xbb1ce74a	-0.002394157
178	0x3d834a62	0.06410672
179	0xbe1fd293	-0.15607671
180	0x3d5517e3	0.052024733
181	0x3c8b1fe3	0.016982978
182	0x3d7361ba	0.05941937
183	0xbd82edeb	-0.063930355
184	0xbd8d6362	-0.069037214
185	0x3d0ac919	0.033883188
186	0x3caa9464	0.020822711
187	0x3c1ec739	0.009691053
188	0x3a81eec1	0.0009913073
189	0x3d557ca7	0.05212083
190	0xbbf10a6c	-0.0073559787
191	0xbcb1dbef	-0.021711318

nn.Linear2.bias f4 [6]
0	0xbd9bb51e	-0.07602905
1	0x3dbb7d09	0.09154708
2	0xbe123f14	-0.14281875
3	0x3d2d7bb2	0.042354293
4	0x3dafdb80	0.08586788
5	0x3dc1751a	0.094461635

nn.Linear0.weight f4 [32, 3]
0	0xc0197b98	-2.3981686
1	0xbd8500a1	-0.064942606
2	0xbd0668b9	-0.032814715
3	0xc026c45f	-2.6057355
4	0xbc9bce5f	-0.019019304
5	0x3d5beaf0	0.05369085
6	0x3f4634d1	0.7742434
7	0x3bcbca56	0.0062191887
8	0xbe34b8e5	-0.17648657
9	0xc012cb04	-2.293641
10	0xbd44ac70	-0.04801601
11	0x3d955471	0.072914965
12	0x404aeecd	3.1708252
13	0xbcef8a42	-0.029240731
14	0x3c27ffc1	0.010253848
15	0xc00f7f91	-2.242161
16	0xbd15b610	-0.03655058
17	0x3d3391a4	0.043840066
18	0x3f45e436	0.7730135
19	0x3dc06f39	0.09396214
20	0x3d21db97	0.039516058
21	0xc016314c	-2.3467588
22	0x3c879197	0.016548915
23	0x3c7d1b92	0.015448468
24	0xc00a6328	-2.162302
25	0x3b97818f	0.004623599
26	0xbd218ef0	-0.039442956
27	0x3f4616df	0.7737865
28	0xbd3864b2	-0.045017906
29	0xbd16e3eb	-0.036838453
30	0xc01f4bee	-2.4890094
31	0x3d494cf9	0.049145672
32	0xbbe08300	-0.006851554
33	0xc0227fe4	-2.5390558
34	0x3ca13720	0.019679606
35	0x3c714bc0	0.014727533
36	0x3f598070	0.84961605
37	0xbe1b9f81	-0.15197565
38	0x3cdbb0dd	0.026817733
39	0x3f4383d5	0.76373035
40	0xbdb08ba0	-0.08620381
41	0x3d6c3286	0.05766537
42	0x401aa2c3	2.4161842
43	0xbc0343ff	-0.008011817
44	0xbb197216	-0.0023413948
45	0x3feb63bc	1.8389812
46	0x3dba7f2e	0.09106289
47	0x3b12d4fd	0.0022404783
48	0x3fe497d5	1.7858835
49	0xbdcc30ed	-0.09970269
50	0x3cc0e5b4	0.023547031
51	0x3f4b2940	0.7935982
52	0x3d99749c	0.074929446
53	0x3dfd8efd	0.123807885
54	0xc015fda6	-2.3436065
55	0xbc95647d	-0.018236393
56	0x3d518a6e	0.051157407
57	0x4054f0d6	3.3271995
58	0xbcc3def8	-0.02391003
59	0x3d1b11d8	0.037858814
60	0xc01c4c5b	-2.4421604
61	0x3d823d91	0.06359399
62	0xbcb349dc	-0.021885805
63	0x401a3e20	2.4100418
64	0x3d491091	0.049088065
65	0x3d9a5918	0.075365245
66	0xc00eaaef	-2.229183
67	0xbc96b019	-0.018394517
68	0x3d82f4c6	0.06394343
69	0xc01d1575	-2.4544346
70	0xbcb2db7d	-0.021833176
71	0xba427084	-0.0007417279
72	0x3f5cc769	0.86241776
73	0x3c0e7fcb	0.00869746
74	0x3bceffd4	0.006317118
75	0xc00a4798	-2.1606197
76	0xbd3854be	-0.04500269
77	0x3d07b664	0.033132926
78	0x40588af5	3.3834813
79	0x3b8966e5	0.004193174
80	0xbd5524ff	-0.052037235
81	0xc01477db	-2.3198154
82	0x3c5a06b9	0.013307267
83	0xbd3823f8	-0.044956177
84	0xc0199015	-2.399419
85	0x3ca83948	0.020535126
86	0xbc27c844	-0.010240618
87	0xc0181275	-2.3761265
88	0xbd22bb09	-0.039729152
89	0xbd6667c1	-0.05625129
90	0x3fbd5f45	1.4794699
91	0x3d351682	0.04421092
92	0x3d135221	0.035966996
93	0xc01c54d4	-2.4426775
94	0xbc95aeaf	-0.018271772
95	0xbca8ce96	-0.02060632

nn.Linear0.bias f4 [32]
0	0x3f7e97a9	0.99450165
1	0x3fa26bfc	1.2689204
2	0x3fad4ca5	1.3539015
3	0x3efa1592	0.48844582
4	0x3f067931	0.52528673
5	0x3f8e02ef	1.1094645
6	0x3fe6f15a	1.8042405
7	0x3f93dfac	1.1552634
8	0x3f84c50b	1.0372633
9	0x3fefd11a	1.8735688
10	0x3f16ced4	0.58909345
11	0x3f9391ba	1.1528847
12	0x4010df03	2.2636116
13	0x3f94dd07	1.1629952
14	0x3f0f53cd	0.55987245
15	0x3f621641	0.88315207
16	0x3f5b2518	0.85603476
17	0x400f0c44	2.2351236
18	0x3f5b1645	0.85580856
19	0x3e7fe75d	0.24990602
20	0x3f9f9930	1.2468624
21	0x3f2a6df6	0.6657404
22	0x3f1c914e	0.6115922
23	0x3fb9b99e	1.4509771
24	0x3f976b7b	1.1829675
25	0x3f10c0a6	0.5654396
26	0x3e674075	0.22583182
27	0x3f21a7ff	0.63146967
28	0x3fa7eb9e	1.311878
29	0x3f579d3b	0.8422429
30	0x3f8347fc	1.0256343
31	0x3f8f50b3	1.1196502

nn.Linear1.weight f4 [32, 32]
0	0xbfd692d2	-1.6763556
1	0xbfe9eb57	-1.8274945
2	0x3f5c704a	0.8610884
3	0xbfc673bc	-1.5504069
4	0x3f8d76f7	1.105193
5	0xbf9f4b42	-1.2444842
6	0x3f2cd596	0.67513406
7	0xbfb09b64	-1.3797421
8	0xbf9635ce	-1.173517
9	0x3f1d2a84	0.61393
10	0xc000b528	-2.011057
11	0xbfec6dfe	-1.8471067
12	0x3f1f949f	0.6233615
13	0x3f6e8f8f	0.93187803
14	0x3f8a5691	1.0807668
15	0x3f5d887a	0.8653637
16	0x3f5f5848	0.8724408
17	0x3e99a2ce	0.30007023
18	0xbfc368f4	-1.5266404
19	0x3fc1fb72	1.515486
20	0xbfba227a	-1.4541771
21	0x3f9541a6	1.1660659
22	0xbfc94a97	-1.5725888
23	0xbfba2015	-1.4541041
24	0x3f8618fe	1.0476377
25	0xbfb2bd6e	-1.3964059
26	0x3fd31dab	1.6493429
27	0xbfeb02b1	-1.8360196
28	0xbfbb563d	-1.4635693
29	0xbfcd7406	-1.6051033
30	0x3f54701c	0.82983565
31	0xbfc60e0c	-1.5473037
32	0xbf0be60a	-0.54647887
33	0xbefa2f1a	-0.4886406
34	0x3f072fcd	0.52807313
35	0xbf06a427	-0.52594227
36	0x3f12efbb	0.5739705
37	0xbeb2e0b8	-0.34937072
38	0x3e920217	0.2851722
39	0xbf36c855	-0.7139943
40	0xbe9427ac	-0.28936517
41	0x3e7ce6d0	0.24697423
42	0xbf74d09d	-0.9563082
43	0xbf24dbbc	-0.6439779
44	0x3e6b211d	0.2296185
45	0x3e49dc7e	0.19713017
46	0x3f30208b	0.68799657
47	0x3ecc83a1	0.39944175
48	0x3f0ce34c	0.5503433
49	0x3de5a6d3	0.1121346
50	0xbf196349	-0.5991712
51	0x3f185e03	0.5951845
52	0xbee4856d	-0.44633046
53	0x3f142d6c	0.5788181
54	0xbf2020e6	-0.625502
55	0xbf03b01b	-0.5144059
56	0x3ea6a8cf	0.32550666
57	0xbf306b6a	-0.689139
58	0x3f2823e7	0.6567978
59	0xbf29ae99	-0.6628204
60	0xbf0cbe7a	-0.54978144
61	0xbf2a8de3	-0.6662275
62	0x3eff6c87	0.49887487
63	0xbefe5777	-0.49676105
64	0xbfdb05cf	-1.7111148
65	0xbfe49268	-1.785718
66	0x3f84226b	1.0323004
67	0xbfc7dc99	-1.5614196
68	0x3facbbf4	1.3494859
69	0xbfa37dd7	-1.2772778
70	0x3f54d9af	0.8314466
71	0xbfb9d5bf	-1.4518355
72	0xbf9d23f2	-1.2276595
73	0x3f06c439	0.5264316
74	0xc0028564	-2.0393915
75	0xbfefbcb6	-1.8729465
76	0x3f395f60	0.72411156
77	0x3f8a86e0	1.082241
78	0x3f6e9b10	0.93205357
79	0x3f7095f5	0.93978816
80	0x3f7b4d10	0.98164463
81	0x3e69c05e	0.22827289
82	0xbfd4433a	-1.6583016
83	0x3fcd9a5d	1.6062733
84	0xbfd1a69a	-1.6378968
85	0x3f681742	0.9066049
86	0xbfd31a3c	-1.6492381
87	0xbfb051e6	-1.3774993
88	0x3f643414	0.89141965
89	0xbfae80a7	-1.3633012
90	0x3fd711f8	1.6802359
91	0xbfeedae6	-1.8660553
92	0xbfad4ea3	-1.3539623
93	0xbfcce18e	-1.6006334
94	0x3f814fe9	1.0102512
95	0xbfe06b45	-1.7532736
96	0x3f1451f1	0.5793753
97	0x3f0e1744	0.5550425
98	0x3f13cf14	0.5773785
99	0x3f0d45f4	0.55184865
100	0x3f0ccc4c	0.5499923
101	0x3f17b749	0.59264046
102	0x3d9d42f6	0.076787874
103	0x3e90687d	0.28204718
104	0x3f1141da	0.56741107
105	0x3e2ae77a	0.16689864
106	0x3eaaee83	0.33385095
107	0x3ee00099	0.43750456
108	0x3eb90df5	0.3614346
109	0x3e95ed85	0.29282776
110	0x3ed72042	0.42016798
111	0x3f0a63dd	0.5405863
112	0x3f225d05	0.63423187
113	0x3ea19ae2	0.3156348
114	0x3ecaa26e	0.3957705
115	0x3f2bccc0	0.671093
116	0x3eace524	0.3376857
117	0x3ec05305	0.3756334
118	0x3ef20a88	0.4727366
119	0x3e84ff55	0.25976053
120	0x3e870e3b	0.26378044
121	0x3f19bcca	0.60053694
122	0x3f2a8c12	0.6661998
123	0x3f01679d	0.50548726
124	0x3ee7f849	0.45306614
125	0x3f354778	0.7081218
126	0x3e9bca2c	0.30427682
127	0x3eb57655	0.35441843
128	0x3f023be1	0.5087262
129	0x3ecd6345	0.401148
130	0xc03efa06	-2.9840102
131	0x3f2f859c	0.68563247
132	0xc094e040	-4.6523743
133	0x3ea801eb	0.32813963
134	0xc01e5d1f	-2.4744337
135	0x3e8c5843	0.27411088
136	0x3f0a0f27	0.5392937
137	0xc02245f6	-2.53552
138	0x3f3df5ea	0.7420336
139	0x3ed3950b	0.41324648
140	0xc03d112b	-2.9541728
141	0xc023bb89	-2.5583212
142	0xc082b76f	-4.084892
143	0xc05d711e	-3.4600291
144	0xc05d41da	-3.4571443
145	0xbfc663af	-1.5499171
146	0x3ed8418d	0.4223751
147	0xc08d566e	-4.4168005
148	0x3e833fa4	0.2563449
149	0xc071e571	-3.779629
150	0x3f1b1963	0.6058561
151	0x3e5a6482	0.21327403
152	0xc02b9508	-2.6809711
153	0x3eef1d19	0.46701887
154	0xc08be88e	-4.372138
155	0x3efcad24	0.49350846
156	0x3e95688b	0.29181322
157	0x3f0a090b	0.5392005
158	0xc040297a	-3.0025315
159	0x3ee2cc7c	0.44296634
160	0xbe518d40	-0.20464039
161	0xbe8ff38d	-0.28115502
162	0x40727f83	3.7890327
163	0xbed27c3e	-0.41110414
164	0x3fb0f7a6	1.3825576
165	0xbeb11072	-0.3458286
166	0x40608f51	3.5087473
167	0xbea0f7a6	-0.3143894
168	0xbe764d34	-0.24052888
169	0x4053414a	3.30086
170	0xbf0aac3d	-0.54169065
171	0xbeb44092	-0.35205513
172	0x4072e1b3	3.7950256
173	0x406b2149	3.6739066
174	0x4033b57b	2.8079517
175	0x405bb399	3.4328368
176	0x4064aeda	3.573172
177	0x404ae7c7	3.1703966
178	0xbd88daf1	-0.06682385
179	0x3f994064	1.1972775
180	0xbe9c6e02	-0.3055268
181	0x4026a67c	2.6039114
182	0xbeadd949	-0.33954838
183	0x3c18755b	0.0093053235
184	0x4068122c	3.6261091
185	0xbea38abb	-0.3194178
186	0x3f69c7b3	0.9132034
187	0xbe8716a7	-0.2638447
188	0xbd8c7c2f	-0.06859624
189	0xbe3c81ee	-0.18408939
190	0x406d3d78	3.7068768
191	0xbec55d71	-0.38547853
192	0x3e8c6c5f	0.2742643
193	0x3eec51d7	0.4615619
194	0xbf85700a	-1.0424817
195	0x3f3a9dce	0.7289704
196	0xbff647cc	-1.9240661
197	0x3f008084	0.501961
198	0xbf0f6070	-0.56006527
199	0x3f1029e5	0.56313926
200	0x3edcec99	0.4314926
201	0xbee99b60	-0.45626354
202	0x3f541f43	0.828602
203	0x3f10d3ec	0.5657337
204	0xbf54c7cc	-0.83117366
205	0xbf4b83ab	-0.79497784
206	0xbfe40b09	-1.7815868
207	0xbfc042a7	-1.5020341
208	0xbfb86099	-1.4404479
209	0xbef06448	-0.4695151
210	0x3f151406	0.5823368
211	0xc009e7b8	-2.154768
212	0x3f005606	0.5013126
213	0xbfd4f371	-1.6636792
214	0x3f3185c0	0.6934471
215	0x3eeae148	0.45875
216	0xbf7e3020	-0.9929218
217	0x3f0f4dfb	0.55978364
218	0xc00db23e	-2.214004
219	0x3f165eb3	0.5873825
220	0x3ec66504	0.38748944
221	0x3f1a05c2	0.60165036
222	0xbf9d50f8	-1.2290335
223	0x3efaac2a	0.48959476
224	0xbdf76ac5	-0.120809115
225	0x3e15577b	0.14584152
226	0xc00065ba	-2.006209
227	0x3e264cbe	0.16240212
228	0xbeace134	-0.33765566
229	0x3e0e44e7	0.13893472
230	0xbfb52e67	-1.4154786
231	0x3deff02a	0.117157295
232	0x3d8ac1b1	0.06775225
233	0xbfccce40	-1.6000443
234	0x3ece26f0	0.40264082
235	0x3e83c626	0.25737113
236	0xbfed1887	-1.852311
237	0xbfddcd18	-1.7328215
238	0xbeaf8b8c	-0.34286153
239	0xbf3d6e12	-0.7399608
240	0xbf82b909	-1.0212718
241	0xbff12014	-1.8837914
242	0xbc424556	-0.011857351
243	0xbdb292ac	-0.08719382
244	0x3eaf6ac0	0.3426113
245	0xbe3bd458	-0.18342721
246	0x3e768af9	0.24076451
247	0x3dfcde2c	0.123470634
248	0xbfbcc8f4	-1.4748826
249	0xbe24cdea	-0.16094175
250	0xbd811463	-0.063027166
251	0x3df2061e	0.11817573
252	0x3e869f94	0.26293623
253	0x3e292e98	0.1652168
254	0xbf8eeb3e	-1.116554
255	0xbc871d9a	-0.016493607

nn.Linear1.bias f4 [32]
0	0x3e555c7c	0.20836061
1	0x3cb64d43	0.022253638
2	0x3dc5daf7	0.09660905
3	0x3ecccfe9	0.40002373
4	0x3dffd4ee	0.12491785
5	0xbe58cab1	-0.2117107
6	0xbe2b77a7	-0.16744862
7	0x3e544d76	0.20732674
8	0xbe03bd66	-0.12865219
9	0xbe9683b6	-0.29397362
10	0x3d3a53b6	0.04548999
11	0x3d07faae	0.03319805
12	0xbd6e46f7	-0.058173146
13	0x3e566798	0.20937955
14	0x3d8af234	0.06784478
15	0x3eec21c4	0.4611951
16	0x3d973811	0.07383741
17	0x3e6935a9	0.22774376
18	0x3efaa2a9	0.48952225
19	0xbe199568	-0.149984
20	0x3cdf6ef2	0.027274583
21	0x3e0eafb5	0.13934214
22	0x3dd43a19	0.10362644
23	0xbdee5176	-0.11636631
24	0xbe1cd0b4	-0.15313989
25	0x3d8874cd	0.06662903
26	0x3dadab91	0.08479989
27	0x3de4cb52	0.11171593
28	0x3e500a7f	0.20316504
29	0x3da73eae	0.08166252
30	0x3d9714ab	0.07376989
31	0xbe952945	-0.2913305

nn.Linear2.weight f4 [20, 32]
0	0x3f1b5c84	0.6068804
1	0xbeeeebd8	-0.4666431
2	0x3f5e784e	0.8690232
3	0xbe6aa3f0	-0.229141
4	0xbe9450fc	-0.28968036
5	0xbe8a5c87	-0.27023718
6	0xbe957491	-0.29190496
7	0xbd3eeeae	-0.04661434
8	0x3ee3b052	0.4447046
9	0x3cdbdf26	0.026839804
10	0x3e362f56	0.17791495
11	0x3deb1ef6	0.11480515
12	0x3f2e207b	0.6801831
13	0xbd5372d9	-0.0516232
14	0xbcc583ea	-0.024110753
15	0xbe427543	-0.18990044
16	0xbd7d88bb	-0.061897974
17	0xbe1d468c	-0.15358943
18	0x3e2ead29	0.17058243
19	0x3eceae71	0.40367463
20	0x3f358d23	0.7091848
21	0xbe17b62f	-0.14815591
22	0x3f2d1bbe	0.67620456
23	0x3e146248	0.14490616
24	0xbfaac05c	-1.3339953
25	0xbf119760	-0.56871605
26	0xbe90d252	-0.28285462
27	0xbe3e74c2	-0.18599227
28	0xbe51874b	-0.20461766
29	0xbe822d6c	-0.2542528
30	0x3d368111	0.04455668
31	0xbf26274f	-0.6490373
32	0x3c3dbba5	0.0115803825
33	0xbe0e16da	-0.13875905
34	0xbe5f0f45	-0.21783169
35	0xbd4306c4	-0.047613874
36	0x3f7ff9e8	0.999907
37	0x3d85e0f6	0.065370485
38	0xbdb9de5a	-0.09075613
39	0x3c85596d	0.016277993
40	0xbdacb1ce	-0.08432351
41	0x3ee6b29d	0.45058146
42	0xbeb676fb	-0.3563765
43	0xbf51e451	-0.8198901
44	0xbd52fde7	-0.05151167
45	0x3ebc18eb	0.3673776
46	0xbea177aa	-0.3153661
47	0xbd4e524e	-0.05037146
48	0x3f0ea69a	0.55722964
49	0xbe8ee666	-0.27910155
50	0xbd4cc878	-0.04999587
51	0xbf2bd218	-0.6711745
52	0x3e2efe78	0.1708926
53	0x3d4cea0b	0.05002789
54	0xbdcb360c	-0.09922418
55	0xbf9bdb41	-1.2176286
56	0x3eea2771	0.45733216
57	0xbefcb4d4	-0.4935671
58	0xbc34568d	-0.011006963
59	0x3df5926b	0.11990818
60	0x3bf1b86b	0.0073767207
61	0xbe73881c	-0.2378239
62	0x3e4c9cef	0.1998174
63	0x3dc25d87	0.09490495
64	0xbf0cd581	-0.5501328
65	0x3e8032d8	0.2503879
66	0xbf25708e	-0.6462487
67	0x3ed916b1	0.42400125
68	0xbf2d1ba7	-0.6762032
69	0x3ebf0ddd	0.37315264
70	0xbe1dee45	-0.15422924
71	0x3d6ccfe0	0.057815433
72	0x3ec113cb	0.37710413
73	0x3c03d858	0.008047186
74	0xbfac429b	-1.3457826
75	0x3e60d445	0.21955974
76	0x3df24464	0.11829451
77	0x3d309ca3	0.04311813
78	0xbf0b2398	-0.54351187
79	0x3e7944e8	0.24342692
80	0x3e32830d	0.17432804
81	0xbf648506	-0.8926548
82	0x3ebe65ea	0.3718713
83	0xbfdd0d16	-1.7269619
84	0x3e2a3554	0.16621906
85	0x3c9d7fcd	0.01922598
86	0xbed8bd00	-0.42331696
87	0x3f9c9272	1.2232192
88	0xbe914358	-0.28371692
89	0x3f1e94e8	0.6194596
90	0x3c3f1a5f	0.011664002
91	0x3e6c9556	0.23103842
92	0xbd26eebb	-0.040755015
93	0xbf55a826	-0.834597
94	0x3d73f7be	0.059562437
95	0x3ef7011f	0.48243043
96	0xbed24827	-0.41070673
97	0x3dc0b6d7	0.09409874
98	0xbe95ce8b	-0.29259142
99	0xbd32a214	-0.0436116
100	0x3f13496d	0.57533914
101	0x3e7d0df7	0.24712358
102	0xbdbb5625	-0.0914729
103	0x3e16d522	0.14729741
104	0xbe6fc30f	-0.23414253
105	0x3edb6cae	0.42856354
106	0xbf4758c8	-0.77869844
107	0xbf0e5411	-0.55597025
108	0xbe57c35f	-0.21070622
109	0x3e604586	0.21901521
110	0xbee52a62	-0.44758898
111	0x3e2fd6ed	0.17171831
112	0x3efa5690	0.48894167
113	0xbeeba2f8	-0.46022773
114	0xbd167ed8	-0.03674206
115	0xbf7e1f60	-0.99266624
116	0xbd6e1070	-0.058121145
117	0x3e73c4d1	0.23805548
118	0xbe3ba09a	-0.18322983
119	0xbf323470	-0.69611263
120	0x3d0c529d	0.034258474
121	0x3e6b74d2	0.22993782
122	0x3e8b8f67	0.27257845
123	0x3dd2e67c	0.10297868
124	0x3dd2188b	0.102585874
125	0xbef9e38c	-0.48806417
126	0x3e9a34d3	0.30118427
127	0x3ed157ae	0.40887207
128	0x3e99ffcf	0.3007798
129	0xbdf7bf98	-0.120970905
130	0x3edf1a2a	0.4357465
131	0xbe00e75c	-0.12588257
132	0xbed28ea6	-0.41124457
133	0x3d9eddf8	0.07757181
134	0x3d37d2db	0.04487882
135	0xbd77b4db	-0.06047521
136	0x3f3a344f	0.72736067
137	0xbe2e137c	-0.1699962
138	0x3e675fae	0.22595093
139	0x3f4515f4	0.7698662
140	0x3f0e6bd2	0.5563327
141	0xbeb99488	-0.36246133
142	0x3dfa9051	0.122345574
143	0x3b7a0537	0.003815008
144	0xbeef5a19	-0.46748427
145	0xbe42c038	-0.19018638
146	0xbd1920df	-0.037384864
147	0x3e80c912	0.25153404
148	0xbdc5aafd	-0.09651754
149	0xbe281eec	-0.16418046
150	0x3e717e3f	0.23583315
151	0x3f27dc2c	0.6557033
152	0xbeccf690	-0.40031862
153	0x3f4c32f9	0.7976528
154	0x3b93e1b0	0.004512988
155	0x3cf63854	0.030056156
156	0xbeb59143	-0.35462388
157	0x3da328ef	0.07966792
158	0xbe2ea323	-0.17054419
159	0xbe4f4de0	-0.2024455
160	0x3e088b25	0.1333433
161	0xbd83ee6f	-0.06441962
162	0x3e643ba1	0.22288372
163	0xbdbbdf6b	-0.09173473
164	0xbf07ff3a	-0.5312382
165	0x3daa65e2	0.08320214
166	0x3ceededf	0.029159008
167	0x3cd5d515	0.026102582
168	0x3f85bcec	1.0448279
169	0xbec094f9	-0.37613657
170	0x3e6f4683	0.23366742
171	0x3f0fcd0d	0.5617226
172	0x3ee6b19d	0.45057383
173	0xbf1039b3	-0.5633804
174	0xba6f39ea	-0.00091257563
175	0x3d944ae4	0.07240847
176	0xbf0ec467	-0.55768436
177	0xbeb15333	-0.34633788
178	0x3d6ae24f	0.05734473
179	0x3df3ee0b	0.119106375
180	0x3f7afc12	0.9804088
181	0xbe9729b2	-0.29523998
182	0x3e3b11e1	0.18268539
183	0x3f1ffb1d	0.62492543
184	0xbff1d40d	-1.8892838
185	0x3e900344	0.2812749
186	0xbe0adf62	-0.13561776
187	0xbcbc0348	-0.022950783
188	0xbf1351b5	-0.5754655
189	0xbe502bd1	-0.20329215
190	0x3c5e7e44	0.013579909
191	0xbcfaf011	-0.03063205
192	0x3e1eace1	0.15495636
193	0xbe605021	-0.21905567
194	0x3d6cc93e	0.057809107
195	0xbdcb1772	-0.09916581
196	0x3f40c631	0.75302416
197	0xbe539c38	-0.20665061
198	0x3e2f8cd0	0.1714356
199	0xbd4f3ae8	-0.050593287
200	0xbd623a1f	-0.05523121
201	0x3e5bc12a	0.21460405
202	0x3e5498b5	0.20761378
203	0xbebe0785	-0.37115112
204	0x3d2c11d8	0.042009205
205	0x3eba5148	0.36390138
206	0x3e0576be	0.13033578
207	0xbe2989ff	-0.16556548
208	0x3ddf2fa4	0.108977586
209	0x3e2204a5	0.15822084
210	0xbdcdd981	-0.10051251
211	0x3ea7b8be	0.32758135
212	0x3e872371	0.26394227
213	0xbd9800dd	-0.0742204
214	0x3de64b82	0.11244871
215	0xbf4dbbc1	-0.80364615
216	0x3f082b71	0.53191286
217	0xbfbeb661	-1.4899408
218	0xbedf7c6c	-0.43649614
219	0xbe24f4e4	-0.16109043
220	0xbecdfcf1	-0.4023204
221	0x3de6810b	0.11255082
222	0xbe2c9f3e	-0.16857621
223	0xbcac3c32	-0.021024797
224	0xbf93b28a	-1.1538861
225	0x3ed1b581	0.4095879
226	0xbf80ef39	-1.0073005
227	0x3e4e88a0	0.20169306
228	0xbf86db37	-1.0535649
229	0x3ef30230	0.47462606
230	0xbea11c46	-0.31466883
231	0xbd83b51b	-0.064310275
232	0x3fa7a449	1.3097011
233	0xbe4bd5e3	-0.1990581
234	0xbf4bc9ea	-0.7960497
235	0x3f0b3efa	0.5439297
236	0x3e20aeaf	0.15691637
237	0xbd6e7273	-0.058214616
238	0xbf1af37f	-0.60527796
239	0x3ea4cb06	0.32186145
240	0x3e7d0543	0.24709038
241	0xbf7540ae	-0.9580182
242	0x3e226511	0.15858866
243	0xbf8ca72f	-1.098852
244	0x3e39416f	0.18091367
245	0x3e6d1b3d	0.23154922
246	0xbeb9b54f	-0.3627114
247	0x4018b6af	2.3861501
248	0xbedbbead	-0.42918912
249	0x3fa643b0	1.2989407
250	0xbd746bc4	-0.059673086
251	0xbc68f23a	-0.014217908
252	0xbf3669aa	-0.7125498
253	0xbf48539e	-0.7825259
254	0x3cce6145	0.025192866
255	0x3ee365e0	0.44413662

nn.Linear2.bias f4 [20]
0	0xbe3216f0	-0.17391562
1	0xbdca8a31	-0.09889639
2	0x3e7ccdea	0.24687925
3	0x3dff10fb	0.12454411
4	0x3d1cbfa7	0.03826871
5	0x3be9a3c1	0.0071301167
6	0xbe48f157	-0.19623314
7	0x3e1955b4	0.149741
8	0x3d7cb4de	0.061695926
9	0x3da02221	0.078190096
10	0x3ee5b64f	0.44865653
11	0x3ebc8e7f	0.36827466
12	0x3e94051b	0.28910145
13	0x3e0e6aca	0.13907924
14	0xbdbf99d0	-0.09355509
15	0xbe853de1	-0.26023772
16	0xbdb44275	-0.08801738
17	0x3d039d92	0.032132693
18	0xbde7e3a1	-0.11322714
19	0x3d89ac07	0.06722265

exp_avg f4 [32, 20]
0	0x3aaa59dd	0.0012996752
1	0xb9fcb761	-0.00048201813
2	0x371c481e	9.315116e-06
3	0xb9f91a0b	-0.00047512384
4	0x39b0bf19	0.00033711715
5	0x3a397ec3	0.0007076079
6	0x3984621c	0.000252501
7	0x393aa294	0.00017798907
8	0xb9d0ade6	-0.00039802416
9	0xb89c7ab0	-7.461512e-05
10	0x38d76420	0.000102706486
11	0xb89b494f	-7.404631e-05
12	0xb8c43d2a	-9.357401e-05
13	0x3999da5a	0.0002934512
14	0x391f73f7	0.00015206622
15	0x3983ae69	0.00025116213
16	0xba38f2bc	-0.0007055213
17	0xb9143ea8	-0.00014137721
18	0xb9fdd2d6	-0.00048413005
19	0xb994fc79	-0.00028416867
20	0xbba856a1	-0.00513728
21	0x3c03ae73	0.008037197
22	0x3c2cd762	0.010549398
23	0x3c2aae14	0.01041748
24	0xbc20e5c0	-0.009820402
25	0xbbc2ad95	-0.0059411027
26	0x3aa8985e	0.0012862792
27	0x3c0ad5f7	0.008473865
28	0x3c204f7b	0.009784575
29	0xbbc91c49	-0.006137405
30	0x39b8a4e4	0.00035218068
31	0xbaa58478	-0.001262798
32	0x3a93b275	0.0011268394
33	0x3a80da79	0.0009830735
34	0xbc4aab66	-0.012369966
35	0xbbe3b124	-0.006948607
36	0xbac72238	-0.0015192693
37	0x3b4e2f7d	0.003146141
38	0x3b839567	0.004015613
39	0x3bcb2528	0.0061994977
40	0xbaa497c2	-0.0012557434
41	0x3a393063	0.00070644
42	0x39ff1637	0.00048653941
43	0x3a6448c7	0.00087083544
44	0xba150e07	-0.0005685989
45	0xbac81917	-0.0015266266
46	0x398d9b26	0.0002700921
47	0x3a20fa60	0.00061408244
48	0x3a9369db	0.0011246757
49	0xb9dc5101	-0.00042022023
50	0x3a09399b	0.0005234719
51	0x3a81f038	0.000991351
52	0x3a3d15ae	0.00072130084
53	0x3a8fafe5	0.0010962455
54	0xba62c63a	-0.0008650754
55	0xba098f1f	-0.0005247462
56	0xb516cc4b	-5.617664e-07
57	0xb8302865	-4.199929e-05
58	0x3a4022c0	0.0007329397
59	0x3995283d	0.00028449474
60	0xbc0deed6	-0.0086629
61	0x3b091c72	0.0020921496
62	0x3c30b352	0.010784941
63	0x3be02707	0.00684059
64	0xbb9c84df	-0.0047765817
65	0xbbe04451	-0.0068440815
66	0xbbf9ca1c	-0.0076229703
67	0x3ab4c762	0.0013792331
68	0x3b82fc2c	0.0039973464
69	0xbbff13d0	-0.0077843443
70	0xbafc34fe	-0.0019241867
71	0xbb926700	-0.004467845
72	0xbbee9d09	-0.0072819036
73	0xbba3d9f0	-0.0050003454
74	0xbc0af4b6	-0.008481195
75	0xbc2459f8	-0.010031216
76	0xbc130748	-0.008973904
77	0xbb593822	-0.003314503
78	0xbb59c2cd	-0.0033227683
79	0x3a9d0d78	0.0011982163
80	0x3c5188bb	0.012788947
81	0xbc18265f	-0.009286492
82	0xbc8a27f4	-0.016864754
83	0xbc80401f	-0.015655575
84	0x3c636ae1	0.013880462
85	0x3c576039	0.0131455
86	0x3bdb47ea	0.0066919224
87	0xba874844	-0.001032122
88	0xbc434242	-0.011917653
89	0x3c026743	0.00795919
90	0x3b78d002	0.003796578
91	0x3b9d6358	0.0048031025
92	0x3bfa1155	0.0076314607
93	0x3ba237c9	0.0049504978
94	0x3c8cfc92	0.017210279
95	0x3c883d9e	0.016630944
96	0x3c4689d2	0.01211782
97	0x3b83195e	0.0040008267
98	0xba937430	-0.0011249837
99	0xbbcc4aa8	-0.0062344857
100	0x3ba864d8	0.0051389746
101	0xbbe60afe	-0.0070203533
102	0xbc30a1cf	-0.010780766
103	0xbc224aa8	-0.009905495
104	0x3c0ca8d8	0.008585177
105	0x3b97e043	0.0046348884
106	0x3aeb9023	0.0017972033
107	0xbc10d0b0	-0.0088388175
108	0xbc1be830	-0.009515807
109	0xbb79a3b0	-0.003809195
110	0xbb4f3be8	-0.00316214
111	0xbb01509a	-0.001973188
112	0xba45e1dd	-0.000754861
113	0xbb5ecf95	-0.003399824
114	0x3c3e8da4	0.011630449
115	0x3bdfe551	0.0068327566
116	0x3ba88367	0.0051426175
117	0xbbb3f7ea	-0.0054922
118	0xbb79f94f	-0.0038142984
119	0xbb846b47	-0.004041109
120	0x3c42efbd	0.011897978
121	0x3a08ff6d	0.00052260497
122	0xbc8e28b1	-0.017353388
123	0xbbec0b1f	-0.007203474
124	0x3b10af52	0.0022077155
125	0x3bf3d717	0.007441412
126	0x3c285388	0.010273822
127	0xbbdb1123	-0.0066853925
128	0xbaba73f5	-0.0014225232
129	0x3c16266c	0.009164434
130	0x3bb60168	0.005554367
131	0x3c30aabd	0.010782895
132	0x3be2ee97	0.006925415
133	0x3bfa062e	0.007630131
134	0x3c199fe6	0.009376502
135	0x3c561bc0	0.01306814
136	0x3c22e66f	0.009942635
137	0x3ba56042	0.005046875
138	0x3c0fd3d5	0.008778532
139	0x39aed985	0.0003334993
140	0x3c451b18	0.012030385
141	0xbc0d6887	-0.008630878
142	0xbc8347cc	-0.016025446
143	0xbc70e7c8	-0.014703698
144	0x3c589921	0.0132201025
145	0x3c4fac66	0.01267538
146	0x3bf8e74b	0.0075959316
147	0x3abfef1e	0.0014643406
148	0xbc30ef7c	-0.010799285
149	0x3c05558b	0.008138071
150	0x3bb56e9e	0.0055368682
151	0x3bb223ff	0.00543642
152	0x3c1f2de9	0.009715536
153	0x3bac3c84	0.0052562375
154	0x3c886d4b	0.016653677
155	0x3c7ac66a	0.015306095
156	0x3c3f53af	0.011677667
157	0x3ba05819	0.0048933146
158	0xba0b3fd2	-0.0005311939
159	0xbbb41552	-0.0054957056
160	0x3b645bab	0.0034844677
161	0x3b1b86dc	0.0023731505
162	0xba941054	-0.001129637
163	0x3a3aa753	0.000712027
164	0xbaffa9a9	-0.0019505519
165	0x3a7b8168	0.0009594173
166	0x3b573101	0.0032835605
167	0x39d26235	0.0004012749
168	0x3aafd6de	0.0013415476
169	0x396615cb	0.00021942628
170	0xbab90179	-0.0014114819
171	0xb850c85a	-4.9777656e-05
172	0x3aa6c17f	0.0012722461
173	0x3a46b146	0.00075795164
174	0xb85be57e	-5.24274e-05
175	0x39c3e81b	0.0003736623
176	0x3b3a1bcc	0.0028397916
177	0x3b31bf3d	0.0027122044
178	0x3b1e7503	0.002417863
179	0x3ab4444b	0.0013753263
180	0xbbc9c18a	-0.006157105
181	0x3a5892fe	0.00082616496
182	0x3c3b2e81	0.011424662
183	0x3bc0f547	0.0058886143
184	0xbb634473	-0.003467825
185	0xbbce6c5d	-0.006299539
186	0xbc0c554e	-0.00856526
187	0x3b555d97	0.0032557005
188	0x3b6165c6	0.0034392937
189	0xbbe17822	-0.006880776
190	0xbc02f178	-0.007992141
191	0xbc206a71	-0.009791003
192	0xbbe74f89	-0.007059042
193	0xbbd0d0cc	-0.006372547
194	0xbbf60648	-0.007508073
195	0xbc1e39be	-0.0096573215
196	0xbc09c71d	-0.008409289
197	0xbb47698f	-0.0030427908
198	0xbb90efc6	-0.0044231145
199	0x3a0bb809	0.00053298526
200	0x3c59a80b	0.0132846935
201	0xba218b12	-0.00061623857
202	0xbc6d71f3	-0.0144925
203	0xbbe522c9	-0.006992672
204	0x3b16a1c5	0.0022984606
205	0x3b897656	0.004195015
206	0x3be3fb1c	0.006957425
207	0xbbe56f40	-0.0070017874
208	0xbb065c0e	-0.0020501646
209	0x3c0f2b3f	0.008738338
210	0xba464c62	-0.00075644825
211	0x3c0f9433	0.008763361
212	0x3aef58b9	0.0018260694
213	0x3b479968	0.0030456427
214	0x3c1aee84	0.009456281
215	0x3c2f35db	0.0106939925
216	0x3be2a34c	0.006916439
217	0x3b0211b8	0.0019846987
218	0x3bba48d4	0.0056849513
219	0xb7a0e15e	-1.9178431e-05
220	0x3ace38f0	0.0015733521
221	0x39f87585	0.00047389805
222	0xba790e7c	-0.00095007545
223	0xba007bc0	-0.00049012527
224	0xb94485cc	-0.0001874186
225	0xb9ae921b	-0.00033296723
226	0x39c18374	0.0003690977
227	0xbaa57810	-0.0012624282
228	0xbaa42cb5	-0.0012525531
229	0x3acfbd27	0.0015849218
230	0xba94dd96	-0.0011357542
231	0x3b2eb957	0.0026660764
232	0xbac1b63e	-0.0014779044
233	0xba3eabc0	-0.00072735175
234	0x3a59eacb	0.000831288
235	0x3a22f0d5	0.00062156963
236	0x3996c391	0.00028755938
237	0xba8f7816	-0.0010945823
238	0x3a1227a4	0.0005575365
239	0x3a0d8371	0.00053983094
240	0xbc1c8772	-0.009553777
241	0x3abb4086	0.0014286197
242	0x3bff8463	0.007797764
243	0x3bbc5380	0.0057472587
244	0xbb676560	-0.0035308227
245	0xbbe24ce0	-0.006906137
246	0xbc022236	-0.007942727
247	0xba8fc0bd	-0.0010967475
248	0x3b46da62	0.0030342569
249	0xba8bc88e	-0.0010664628
250	0x3aa60cf3	0.0012668654
251	0xba573f4a	-0.000821103
252	0xbbcb175e	-0.006197854
253	0xbb3fa482	-0.0029242341
254	0xbbd1a8fe	-0.0063983193
255	0xbc0ba2b0	-0.008522674
