models/model_02_CDMS-NNRegressor/trained-model.pt (torch, 15206 bytes, 17 tensors)

nn.Linear0.weight f4 [32, 19]
000000 5e f4 cb bc 64 74 c8 3e 75 0a 69 3d ca b9 9c 3e
       -0.024896797 0.391513 0.05689474 0.30610496
000010 64 5b 44 be cd b8 22 3e 32 90 f0 bc 83 a5 28 3d
       -0.19175488 0.15890808 -0.029365633 0.04117347
000020 fd 1b 08 be 2c a7 56 3d 90 1a fc 3b ff 26 49 3b
       -0.13291927 0.05240552 0.007693596 0.003069341
000030 43 12 b8 bd 7c 12 4a 3d de 1e 0c be 00 d5 e2 bd
       -0.08987858 0.049334034 -0.1368365 -0.11075783
000040 24 57 1e 3e 82 01 1b 3d e2 d1 07 3f 69 b5 9b 3d
       0.15462929 0.037843235 0.5305463 0.076029606
000050 52 d9 0a be 40 5a 89 bd c2 05 2c be ad 9e a6 3d
       -0.13559464 -0.06706667 -0.16799071 0.08135734
000060 49 58 6d 3e a1 3c 8f be b1 c3 ce 3d 9c a5 8d 3e
       0.2317821 -0.27975944 0.10095919 0.27665412
000070 43 ec 80 bc 53 f3 03 3d 87 95 86 3d 5c 04 55 bd
       -0.015737658 0.032214474 0.06571489 -0.05200611
000080 58 0e 02 be 9e b9 e4 bc 60 85 6f bd 14 22 d5 bd
       -0.12700784 -0.02792054 -0.058476806 -0.104068905
000090 a5 59 57 bd 95 0b 1f 3e d5 51 80 bd ac 56 b7 3e
       -0.052575726 0.15531762 -0.06265608 0.35808313
0000a0 3b d5 4a 3c b5 21 a3 3d 71 97 8f 3c 96 7b 18 3e
       0.01237994 0.079654135 0.017528268 0.14890894
0000b0 eb 68 9c bd 52 f5 86 3b 68 c5 1a bd 8d bc 06 bd
       -0.07637199 0.0041186 -0.037785918 -0.03289466
0000c0 03 ef 94 bc 98 c6 e5 bb 93 29 37 bd 05 6f 1c 3e
       -0.018180376 -0.0070121996 -0.044717383 0.15276726
0000d0 28 94 d2 bd de 52 36 bd ba 09 19 3d 0f 22 56 3d
       -0.10282165 -0.044512622 0.03736279 0.052278575
0000e0 fb 4a c7 3e 5c d5 61 bd 20 c1 c0 3e 7e 3f 00 3e
       0.38924393 -0.055135116 0.37647343 0.1252422
0000f0 40 7c 82 3e 4b a4 70 be 54 8d 7b bd 4c 7d 98 3e
       0.2548542 -0.23500173 -0.061414078 0.29783094
000100 07 29 67 3e ee 09 f5 bd e3 f6 db bd 77 88 35 bd
       0.22574244 -0.119647846 -0.10740449 -0.044319596
000110 58 6c 03 3e 43 d0 32 bd 89 63 6f 3e 7c 3f 92 bc
       0.12834299 -0.043655645 0.23377813 -0.017852537
000120 42 ce 43 bc 99 1c 1f 3e 64 a1 bf 3d 47 55 a0 3e
       -0.011951031 0.15538253 0.09356955 0.3131506
000130 ac 0c cc 3c 5f d9 a2 3e b4 59 9a 3d b3 5b 74 3e
       0.024908386 0.31806466 0.07536641 0.23863105
000140 8b cb 12 be e9 a5 25 3e 65 f7 7b 3e f6 e5 e2 bd
       -0.14335458 0.16176571 0.24606092 -0.11079018
000150 13 d0 d3 be ad 2a 46 3c bc ea 2b bc 5e 42 1f bd
       -0.41369686 0.012095136 -0.010492977 -0.038881652
000160 18 3b 20 bb ca 0b 0b 3d ab 2c b8 bd 9a e0 0a be
       -0.0024449285 0.03394679 -0.08992895 -0.13562241
000170 86 82 13 3b da c8 e8 bd 2c 12 39 3d 33 42 1f bd
       0.0022508218 -0.113664344 0.045183346 -0.038881492
000180 bd 04 bc 3e eb 72 2e bc 18 bb 0c 3e e1 2c 2a be
       0.36722365 -0.010647516 0.13743246 -0.16618682
000190 17 37 b3 3d ef 7a 18 be 8f df 37 3c ca 0f fa bd
       0.08750742 -0.14890645 0.011222734 -0.12210043
0001a0 94 a9 b2 bc cb f8 db 3d f3 0c 35 bd de 14 92 bb
       -0.021809377 0.10740813 -0.044201802 -0.004458054
0001b0 69 36 8f 3d 79 96 b2 bd 3f b7 c2 bd 7d 03 1f 3d
       0.069928 -0.08720107 -0.09507608 0.038821686
0001c0 fa 22 a3 3b 9c f6 fa 3e 87 1c 22 be e3 2a b0 3e
       0.0049785348 0.49016273 -0.15831195 0.3440772
0001d0 55 ff 18 3e c4 b2 22 3e 08 80 02 be 18 be 8a 3d
       0.14941151 0.15888506 -0.12744153 0.06774539
0001e0 18 94 d5 3d 64 03 88 3d 27 9e 53 bd 5e c3 30 bd
       0.10428637 0.06641272 -0.051664498 -0.043155067
0001f0 90 f9 0a bd 91 65 90 3d b4 da 8b 3d 0f 3e ba 3d
       -0.033929408 0.07050622 0.06828824 0.09093868
000200 31 ee 93 3c ad d5 9a bd b3 72 0e 3e 66 25 6c bc
       0.018057914 -0.07560287 0.13910942 -0.014413213
000210 65 af 0e 3f 74 a1 32 bd 76 fc 1d 3f f7 ce 44 3c
       0.5573638 -0.043611005 0.6171335 0.012012235
000220 52 eb c3 3d 7f 4d 6f 3b 75 9a f1 3c be 42 a6 3d
       0.09566368 0.0036514697 0.029492596 0.08118199
000230 3a 09 01 3e 5f 0a 0b be 03 d8 fc 3c 86 2e 6b 3b
       0.12601176 -0.13578175 0.030864721 0.0035885884
000240 65 da 0b 3c a9 7d b5 bc 89 9b 94 3d 92 1e 71 be
       0.008535956 -0.022154646 0.072562285 -0.23546818
000250 3c fe 6c bc 09 33 3c 3e c0 73 b5 3d 59 c4 80 3e
       -0.014464911 0.18378843 0.08859968 0.251498
000260 04 b6 d5 bd f4 38 e5 3e b1 30 9d bb 6b 64 80 3e
       -0.10435107 0.44770014 -0.0047970642 0.25076613
000270 f8 17 7c bd 29 a2 05 3e 2f a3 76 3d de 5b 2d bd
       -0.061546296 0.1305014 0.060214218 -0.04232394
000280 33 f4 0a be bb 9a 70 bc d2 84 fd bb 14 18 22 3d
       -0.13569717 -0.014685328 -0.0077367807 0.039573744
000290 32 7b b7 3d 6e 75 24 bc f3 ff c7 bd 90 e2 b6 bd
       0.089590445 -0.010037763 -0.09765615 -0.08929932
0002a0 13 10 f1 3d 86 10 aa 3d 66 64 67 3e 70 ab d4 bd
       0.11770644 0.08303933 0.22596893 -0.103842616
0002b0 79 39 14 3e 99 8e 05 3e f2 28 c2 3e ea fb 29 be
       0.14475049 0.13042678 0.37921864 -0.16600004
0002c0 86 6a 5a 3d c6 09 4b 3e 73 c7 22 3e fa 3a 49 3d
       0.053324245 0.19827947 0.15896396 0.04912851
0002d0 e8 bd b9 bc b3 ba 83 3c f7 b2 51 3c 49 00 ac bd
       -0.022673562 0.016080236 0.012799016 -0.08398492
0002e0 59 2e 01 3e 56 d7 e9 3c b8 12 8c 3d 58 2d 13 3e
       0.12615336 0.028545063 0.06839508 0.14372766
0002f0 ed 67 22 3e 24 a8 2a 3e 53 1c 99 3c f7 4f 0d 3f
       0.15859957 0.16665703 0.018690264 0.5520014
000300 83 e4 c6 bd fe f7 5b 3d dd 6d 2c bd ad e3 d6 3d
       -0.09711554 0.0537033 -0.04209696 0.104926445
000310 a3 30 36 be 77 29 1d 3e 0f 72 24 be a4 3a 56 3d
       -0.17791991 0.15347849 -0.16059135 0.052302018
000320 7e 29 14 3c 64 54 7f 3d 53 c1 3d be 83 d8 ce 3d
       0.009043096 0.06233634 -0.18530779 0.1009989
000330 f8 2a 14 be 9f c3 dd bd 1d 32 9c 3c 8e 49 58 3e
       -0.14469516 -0.108283274 0.019066865 0.21121809
000340 cd d0 96 3e 5b af d8 3c a7 78 af 3e 6a d5 ca 3d
       0.29456177 0.026450804 0.34271738 0.09903987
000350 1e 59 98 bc a3 af 85 bd 49 a0 e0 3d 08 c5 23 3e
       -0.018597182 -0.06527641 0.10968072 0.1599313
000360 6d 59 0e be c8 e6 7b be d8 52 90 3c 98 bb 79 3d
       -0.139013 -0.24599755 0.017617628 0.06096992
000370 13 01 27 bd 14 a8 e2 bd a8 6c f4 bd ab 99 c3 bd
       -0.04077251 -0.110672146 -0.11934787 -0.09550794
000380 5b ac 2d be 09 4e a7 3d 98 ea c1 bd 8e c4 20 3e
       -0.1696028 0.08169181 -0.09468573 0.1569998
000390 13 86 01 be 33 50 2d 3f bc 87 02 3c 49 6f 11 3e
       -0.12648802 0.677005 0.007966932 0.14202608
0003a0 e4 27 10 be d4 4a f9 bc 0f fe 1f bd 77 e8 aa 3d
       -0.14077717 -0.030431189 -0.03906065 0.083451204
0003b0 d2 d0 b9 bd 46 0d 9d bc af 51 91 3c a9 ba 85 bc
       -0.090730324 -0.019171368 0.017739145 -0.016324358
0003c0 4d 3c aa bc cc e3 49 3e f5 77 48 3c f8 57 e8 bd
       -0.020780707 0.19715804 0.012235631 -0.11344904
0003d0 6d 0e 25 3e 0d a4 ab 3d ed e0 c5 3e 4d 4e 66 3e
       0.16118784 0.083808996 0.38648167 0.22490807
0003e0 db 0d 56 3e ea c7 a6 be 5b c9 cc be 0a d1 bc bd
       0.20903723 -0.32574397 -0.39997372 -0.092195585
0003f0 37 a8 92 be 92 50 e1 3c b5 5e 88 bd a5 3b 83 be
       -0.28643963 0.02750424 -0.06658689 -0.25631443

nn.Linear0.bias f4 [32]
000000 5b cb 55 3e 2c 6e de 3d ee 30 19 be 21 13 7b be
       0.20878355 0.10860857 -0.14960071 -0.24519016
000010 e4 7b 9b 3d 7b d2 c6 3d f7 1e 40 bd 57 8c b9 3c
       0.0759199 0.09708115 -0.04690453 0.022649927
000020 a5 4a cf 3d 1e ca 03 be 9a 8a c7 3d 49 fa 3e be
       0.10121659 -0.1287007 0.09743233 -0.18650164
000030 4b 68 a0 bd 1e 11 c5 3d a7 18 27 be eb 24 fc bd
       -0.07832392 0.096224055 -0.16317998 -0.12311729
000040 3a 30 1e be 84 f4 ba bd 08 cb 2a bc 0b 22 5e be
       -0.15448084 -0.09128669 -0.010424383 -0.21692674
000050 03 85 7f 3e cb b3 77 3b 33 5a 9a bd 50 7e e8 bd
       0.24953084 0.0037796374 -0.075367354 -0.11352217
000060 6c ce 0b 3e c1 00 64 be e0 33 fe 3d 84 d9 aa bd
       0.13652962 -0.22265913 0.12412238 -0.08342269
000070 eb d2 31 be cf 54 66 bd 8b ab 92 3d c7 64 76 3d
       -0.17365615 -0.056233224 0.071616255 0.060154703

nn.BatchNorm0.weight f4 [32]
000000 f0 17 ad 3f 8f e9 9c 3f 58 0d b4 3f 9a bb b4 3f
       1.352293 1.2258776 1.4066572 1.4119751
000010 bf fc 9c 3f 7f 7b b6 3f a9 20 b3 3f 5c 83 b0 3f
       1.2264632 1.4256438 1.3994342 1.3790088
000020 f1 ab ac 3f 72 d1 a2 3f 57 d2 aa 3f 96 04 a0 3f
       1.3489972 1.2720168 1.3345441 1.25014
000030 4f 57 b9 3f 57 55 c9 3f 36 4c a9 3f 69 41 b0 3f
       1.447977 1.5729169 1.3226383 1.3769962
000040 e7 df b4 3f be e2 ad 3f cf b5 b2 3f c4 f0 b1 3f
       1.413083 1.3584821 1.3961734 1.3901601
000050 89 ee b4 3f fe 46 ae 3f f8 c9 b5 3f ea 02 b0 3f
       1.4135295 1.3615415 1.4202261 1.3750889
000060 4b f1 a9 3f c1 f6 ba 3f d2 2c a7 3f a8 d9 af 3f
       1.3276762 1.4606553 1.3060553 1.3738298
000070 9e e5 b6 3f fb fd b3 3f 1c 32 b2 3f 99 ec be 3f
       1.4288824 1.4061884 1.3921542 1.4915954

nn.BatchNorm0.bias f4 [32]
000000 1a 00 4e 3f 48 c3 48 bf 7d eb 42 3f 34 b9 54 3f
       0.80468905 -0.78422976 0.76140577 0.830951
000010 32 cc 80 3f 4e 1b 56 3f 38 cf 3e 3f 32 36 3f 3f
       1.0062315 0.83635414 0.7453494 0.7469207
000020 13 24 3b 3f fe 28 34 3f f4 ab 36 3f 2b 5f 6b 3f
       0.7310192 0.7037505 0.7135613 0.9194209
000030 f8 fc 56 3f a5 81 ab 3e 6d c9 39 3f 1c d7 59 3f
       0.8397975 0.33497348 0.72572976 0.85093856
000040 6e 9e 45 3f 96 1d 84 3f 4e ec 72 3f fb 43 4b 3f
       0.7719487 1.0321529 0.9489182 0.79400605
000050 cc df 4a 3f 9c e8 22 3f 8a 26 58 3f 1f 8d 3a 3f
       0.79247737 0.63636184 0.84433806 0.72871584
000060 5f 83 1e 3f a1 13 53 3f 90 40 6f 3f 52 41 45 3f
       0.61919206 0.82451826 0.9345789 0.77052796
000070 62 e3 5c 3f 69 f2 43 3f f0 0a 4d 3f 3d 76 e1 3e
       0.8628446 0.76541764 0.80094814 0.4403552

nn.BatchNorm0.running_mean f4 [32]
000000 7c 40 6f 3e f9 ba d3 3d bd 96 0a be ea f1 59 be
       0.23364443 0.103383966 -0.13534065 -0.21283689
000010 79 19 a5 3d 82 ce e7 3d fa b9 a0 bc 9a aa 44 3d
       0.08061499 0.11318685 -0.01961993 0.04801426
000020 52 ff f2 3d d1 0b d3 bd dd f8 e9 3d 9c 79 3a be
       0.11865105 -0.10304988 0.1142442 -0.18210453
000030 75 6b 56 bd 8c 9c b9 3d 5f 25 1c be dd bb c8 bd
       -0.052348573 0.09063062 -0.15248631 -0.09801457
000040 88 b0 0a be 1a 31 b3 bd 5a fd 84 bb 9f fd 50 be
       -0.13543904 -0.087496 -0.004058522 -0.20409249
000050 87 d2 8d 3e aa 77 c9 39 10 68 70 bd 4c 3a d6 bd
       0.27699682 0.00038426864 -0.05869299 -0.10460338
000060 91 8b 09 3e 22 a3 5a be 5e 18 00 3e fc 3a 8a bd
       0.13432147 -0.21351293 0.12509295 -0.067495316
000070 f8 c9 1c be 72 bd 00 bd d1 91 bc 3d ba ae 81 3d
       -0.1531142 -0.03143067 0.092075 0.063321546

nn.BatchNorm0.running_var f4 [32]
000000 b0 c9 00 40 15 cb 2e 3e 8b 05 40 3f bb a3 53 40
       2.01231 0.17069657 0.7500846 3.3068683
000010 5c 33 8a 3e 11 c0 8c 3f 2e 62 02 40 f8 47 e8 3f
       0.2699231 1.0996114 2.0372424 1.8146963
000020 b8 d1 97 3f 15 79 e0 3f 7e ac 69 3f 26 69 18 3e
       1.1860876 1.7536951 0.9127883 0.14883861
000030 3f b8 18 40 38 66 b3 3e d2 78 1e 3f d8 d5 f3 3f
       2.3862455 0.35038924 0.6190311 1.9049635
000040 6d 01 cb 3f a7 74 86 3e 89 8c ed 3e 7b 2f 3c 3f
       1.585981 0.26260874 0.46396282 0.7350995
000050 db 24 2f 40 b7 8f 38 3e 36 26 79 3f 62 bb 0d 3f
       2.7366245 0.18023573 0.9732393 0.5536405
000060 77 05 d8 3d f6 f1 b0 3e c6 36 48 3e c4 6e 9b 3f
       0.10547917 0.34559602 0.19552144 1.2143178
000070 a7 27 b8 3f 25 5a 0b 40 60 ed d2 3f a2 95 26 3e
       1.4387101 2.177377 1.6478691 0.16268018

nn.Linear1.weight f4 [1, 32]
000000 a7 52 04 bf 43 74 01 3f b9 70 02 bf 2b c5 fb be
       -0.5168862 0.50568026 -0.5095325 -0.49173865
000010 5d 03 0f bf 69 ff f8 be 05 05 05 bf f4 20 0c bf
       -0.55864507 -0.48632362 -0.51960784 -0.5473778
000020 9d 33 0a bf 20 81 0c bf 29 f0 0c bf cb 42 10 bf
       -0.53985006 -0.5488453 -0.55053955 -0.5635192
000030 38 3b f7 be 6c b5 fb be 0d 6d 07 bf a5 bb f3 be
       -0.48287368 -0.4916185 -0.52900773 -0.476041
000040 78 b2 03 bf 93 f8 05 bf 83 d9 f8 be fa 86 02 bf
       -0.51444197 -0.5233242 -0.48603448 -0.5098721
000050 2f 39 01 bf 7d 8b 08 bf f7 fd f8 be a0 ab 05 bf
       -0.5047788 -0.5333784 -0.4863126 -0.52215004
000060 bc 6f 07 bf 0a 63 f7 be 3c 27 0f bf f8 90 02 bf
       -0.5290487 -0.48317748 -0.5591924 -0.51002455
000070 05 98 f1 be 21 80 f7 be 68 56 02 bf b1 61 0f bf
       -0.47186294 -0.48339942 -0.50913095 -0.5600844

exp_avg f4 [32, 19]
000000 92 75 1a 3b 7d 5a 8b 3b 88 d1 af bb fd e0 2c 3b
       0.0023568613 0.0042527304 -0.0053655542 0.002637922
000010 ba 88 bf bb 38 6d 9e bc c6 e9 1a 3c 1b 2c b9 bb
       -0.0058451565 -0.019339189 0.00945515 -0.0056510097
000020 c7 f4 e6 3b 2a 14 89 bc 72 8b e5 bb 43 43 d1 bb
       0.0070482227 -0.016733248 -0.0070051486 -0.006386192
000030 e7 a0 a4 ba 79 4b c5 ba a7 8a c8 bb a0 74 6c bc
       -0.001256016 -0.00150524 -0.0061200443 -0.014432102
000040 6b 2e ea bb ae cb 9d b9 78 50 4d 3a 13 cf 83 3b
       -0.0071466467 -0.00030097127 0.000783212 0.004022488
000050 0c f2 7a 3c 2a 09 24 3c 45 a8 4f 3c f9 88 51 bc
       0.015316498 0.0100119505 0.012674396 -0.0127890045
000060 97 2e b8 3b 97 31 34 3c b0 34 f6 3c 8a e2 53 3c
       0.0056207883 0.010998151 0.03005442 0.012932429
000070 1c b9 9a 3a 36 0b 4f 3c 89 f0 3d 3c 19 dd 4d 3c
       0.0011804434 0.01263695 0.011592993 0.012564921
000080 ed 93 2d 3c 05 95 3f bc 9d 28 47 3b f4 a6 f7 3b
       0.01059435 -0.011693244 0.0030389198 0.007557744
000090 8e 99 4d 3c a4 3d 5a 3c cf fa dc ba 6e 3f f9 3b
       0.012548817 0.01332036 -0.0016859415 0.0076064384
0000a0 34 c8 9c bb 39 94 d0 3b 30 a9 a5 bc 4b 25 1e bd
       -0.0047846083 0.006365326 -0.020222276 -0.038609784
0000b0 8d 6d 82 3c 20 be 1e bc 34 c9 2b 3c 2f 48 a7 bc
       0.015921379 -0.009688884 0.010484982 -0.020420162
0000c0 53 48 1e bc 3f 7e 25 bc a1 2d 0a bc 86 86 6a ba
       -0.009660798 -0.0101009 -0.00843373 -0.0008946437
0000d0 98 70 a4 bc 2b a2 27 bc 7c 50 18 bc 5c 15 f0 bb
       -0.02007322 -0.010231535 -0.009296533 -0.007326765
0000e0 ab 40 17 3b b0 83 6e bb d0 89 3e b9 49 dc 1f 3c
       0.0023079317 -0.003639441 -0.00018171151 0.00975711
0000f0 dc 92 a7 3b 1d a3 e7 b9 16 fb a4 bc c6 e0 7c bb
       0.0051139425 -0.00044181282 -0.020139258 -0.0038586124
000100 65 e5 6c 3b 8d 4f 9b 3b 61 36 8a bc 09 52 5b bc
       0.0036147472 0.004739708 -0.016871633 -0.013386258
000110 e5 40 21 bb 72 d9 ab bb 86 c8 e1 bb 47 59 bd bb
       -0.002460533 -0.0052444274 -0.0068903593 -0.005778465
000120 de 5e 8f bc e6 e7 75 bc 20 b3 40 bb 38 dc c2 bb
       -0.01750129 -0.015008902 -0.0029403642 -0.0059466623
000130 bc b4 af 3c 9d f1 04 bc ff c7 e0 bc e1 b2 0e bc
       0.021448486 -0.008114246 -0.027439116 -0.00870964
000140 d2 de 95 3b b8 46 d0 bc b4 31 83 3c 15 99 27 bd
       0.0045736814 -0.025424346 0.016014911 -0.040917475
000150 f1 f9 1f 3b 78 7c 27 bd ed fe 01 bd c6 23 0f bd
       0.0024410451 -0.040890187 -0.031737257 -0.034946226
000160 99 73 9a bc bc 8a 06 bc be 05 41 3b 2e b9 38 ba
       -0.01885395 -0.008211788 0.0029452886 -0.0007046637
000170 43 2f c3 bc a5 d4 b5 bc b5 dc 06 bc 67 1e e2 bb
       -0.023826247 -0.022196123 -0.008231332 -0.006900597
000180 9d ae 42 3b 92 f6 c4 3b 8e fc 02 3c f6 c2 7a bc
       0.0029706128 0.006010839 0.007994784 -0.015305271
000190 93 e4 14 bd fc 93 8a ba 9b af a2 bc d5 d6 b6 3a
       -0.036350798 -0.0010572667 -0.019859126 0.0013949523
0001a0 8d 8b b3 bc e8 2f 8c bc 43 ec c4 bc e1 97 b1 bc
       -0.021917129 -0.017112687 -0.02403844 -0.021678867
0001b0 e9 0e 7f bc 95 32 ca bc b6 7e a6 bc 6c e2 7b bc
       -0.01556752 -0.024682323 -0.020324092 -0.015373807
0001c0 6f 61 84 bc aa 0d 17 bc 32 3d 1c bc 6a ba bc 3b
       -0.016159741 -0.009219566 -0.0095360745 0.005759527
0001d0 e4 20 45 3c 9d 7f 41 3c 3c 84 bf bb 6a d4 d5 bc
       0.0120317675 0.0118102105 -0.005844621 -0.026102263
0001e0 0e 39 82 bb af a2 80 bb 81 b0 45 3c 1d 28 81 bc
       -0.0039740866 -0.0039256434 0.012066008 -0.015766198
0001f0 ee 62 79 bc 86 56 cc bb 89 e9 2e bc 02 da 2a bc
       -0.015221341 -0.0062359003 -0.010675796 -0.010427954
000200 a7 59 3f bc 19 ad b5 bc ed 89 95 bc fc a5 ff bb
       -0.01167909 -0.022177266 -0.018254245 -0.0078017693
000210 74 91 cc bb 31 7e 99 bb 58 d3 8a 3b 49 c4 32 3c
       -0.0062429253 -0.0046842326 0.00423662 0.010911056
000220 5f ba 27 3c 06 db c1 bb 9c 77 f7 bc 64 a7 25 bb
       0.010237305 -0.005916002 -0.030208401 -0.0025276775
000230 56 b8 d8 bb 87 c4 87 3b 8a 13 06 bd ff fd 89 bc
       -0.0066137714 0.004143301 -0.032733478 -0.016844748
000240 9e c2 1f bb 51 99 0b bc 73 58 15 bc f1 43 4d bc
       -0.0024377475 -0.00852044 -0.009115326 -0.0125284055
000250 fa 91 eb bc 9a 76 39 bc a9 3c b3 bb a0 f1 96 bb
       -0.02875613 -0.011319781 -0.0054698777 -0.0046064407
000260 a8 04 07 bc 89 b4 a1 3b 74 a7 87 3c ed 76 35 3c
       -0.008240856 0.0049348515 0.01655934 0.011075717
000270 3e c6 7c bc 9e 66 36 bd 5e ef 6e b9 27 5a 19 b8
       -0.015428124 -0.044531457 -0.0002278662 -3.6562004e-05
000280 e2 89 47 3c dc cc e9 bc 98 94 a1 bc 51 d4 49 bb
       0.01217887 -0.028540067 -0.019724175 -0.0030796716
000290 bf cb 36 bc 2f 34 21 bc 46 0a db bc c6 14 d9 bc
       -0.011156975 -0.009839102 -0.026738297 -0.026499163
0002a0 42 d9 b4 bc 65 bb 9a bb b3 c9 c9 bb 12 86 08 3b
       -0.022076253 -0.004722046 -0.0061580776 0.0020831865
0002b0 71 09 f9 39 a3 c9 e8 bb e9 d6 c9 ba 56 47 11 bc
       0.00047500015 -0.007104115 -0.0015399131 -0.0088671055
0002c0 8f 8d c2 bc 03 d0 2d 3c 10 e7 25 bc 22 9f 9d 3a
       -0.023749141 0.010608676 -0.01012589 0.0012025575
0002d0 0f 59 2d bc 1d 11 ea bb 67 db 3d bc 23 c0 00 bc
       -0.010580315 -0.0071431533 -0.011587954 -0.007858309
0002e0 f0 0c 7a ba fd 10 0b bc 1b 6f 07 3c 09 14 0f ba
       -0.0009538671 -0.008487937 0.008266236 -0.00054580026
0002f0 fe cd 81 bb cf 74 05 3b 9f 4e 82 bc cc 37 17 3c
       -0.0039613238 0.0020363813 -0.01590663 0.009229612
000300 cb a9 d2 3c c3 30 bc 3c f5 65 96 bc 5b 26 38 bd
       0.02571573 0.02297247 -0.018359164 -0.044958454
000310 ab 06 6d bb dc c9 9f 3b f1 04 ab 3c 04 da 2b bd
       -0.0036167304 0.0048763584 0.02087638 -0.041955963
000320 e2 1c c1 bc 17 0a 27 bb da 4f c1 bb 43 d8 26 bc
       -0.023573343 -0.0025488192 -0.0058994116 -0.010183397
000330 3e 78 f7 bc a6 c8 3e bd 02 34 c1 bc 29 18 24 bc
       -0.030208703 -0.046578072 -0.02358437 -0.010015526
000340 13 96 17 bc 43 a5 80 3c a1 7f 7b 3c df cb 30 3c
       -0.009252089 0.015703803 0.015350253 0.010790794
000350 85 b3 e0 3c 21 49 8c bc 30 3d 85 bd 98 18 95 3c
       0.027429352 -0.017124714 -0.06505811 0.018200204
000360 9e 26 07 3c 0f eb 18 3d 15 8e cf bd 62 bc 3a bd
       0.008248953 0.037333544 -0.10134522 -0.045589812
000370 d7 9c 4a bd e1 22 83 bc 54 a9 00 bd 3b 6f 18 bd
       -0.04946598 -0.016007842 -0.031411484 -0.037215453
000380 59 d4 ad bc 31 e2 33 bd f4 eb 1a 3c e9 dc 09 3b
       -0.02121942 -0.043916885 0.00945567 0.0021036214
000390 eb cb f8 ba 24 b7 76 39 d4 ba f5 39 0f 1f 4f 3b
       -0.0018981671 0.00023528613 0.0004686924 0.0031604206
0003a0 84 f8 eb bb 24 60 0c bd 77 8e 13 3b 30 d6 4e bc
       -0.007201256 -0.034271374 0.0022515336 -0.0126243085
0003b0 ac 64 84 3b a6 80 b2 bb 78 8d 2c ba 41 d5 fa ba
       0.0040403213 -0.005447465 -0.000658236 -0.0019137041
0003c0 3c f8 c9 ba 36 fa 35 ba d7 a2 2d bc 63 01 59 bc
       -0.0015409063 -0.00069418864 -0.010597906 -0.0132449595
0003d0 05 38 fb bb df 77 d9 bb bd 3e 61 bb d0 37 90 bc
       -0.00766659 -0.006636604 -0.003436967 -0.017604738
0003e0 0e 19 3c bb 3b 84 1e 3d 1a b0 5d 3c 5d 55 05 ba
       -0.0028701457 0.038700324 0.013530755 -0.00050862675
0003f0 4f a6 37 bd ae 1e b0 bc ed 7b b6 3a 91 b3 ac 3a
       -0.04483634 -0.021499004 0.0013922431 0.0013176074

exp_avg_sq f4 [32, 19]
000000 ff 02 83 3b bf 08 18 39 5d 70 c0 3b 9b fc c4 3a
       0.00399816 0.00014499108 0.0058727697 0.0015028896
000010 57 e8 5e 3a 0f 95 4e 3b e0 dd ef 3a 67 99 38 3b
       0.0008503249 0.0031521951 0.0018300377 0.0028167607
000020 47 a8 48 3a 4f 32 86 3b 7e 83 3e 3b 11 c0 4a 3b
       0.000765447 0.0040953527 0.0029070075 0.0030937234
000030 e4 4a f9 3a 48 74 ee 3a 50 55 33 3b 8d 1a c8 3b
       0.0019019512 0.0018192613 0.0027364083 0.0061066807
000040 94 ba 20 3b d5 3a 59 3a c9 88 4f 3a 30 fd 50 3a
       0.0024525272 0.000828666 0.0007916806 0.0007972298
000050 99 58 69 3a 19 6f 8a 3a 1f a3 49 3a 81 0a 2a 3a
       0.00089014467 0.0010561674 0.00076918484 0.00064865506
000060 ec 52 ac 39 b2 ed 20 3a 7f d5 77 3b 3c 3a 33 3a
       0.00032868178 0.0006138935 0.0037816463 0.00068369857
000070 e7 21 96 39 c4 09 24 3b 50 78 ed 3a d7 da 36 3a
       0.0002863549 0.0025030235 0.0018117521 0.00069753587
000080 ff 54 2a 3a ef fc 12 3a c9 60 6e 39 c9 6f 20 3a
       0.0006497651 0.0005607148 0.00022733504 0.0006120173
000090 af 32 6e 3a f4 fa 3f 3a 15 21 58 3c 0a cc f8 39
       0.0009086532 0.00073234667 0.013191481 0.00047454267
0000a0 28 ec 9f 3c 5b e0 a1 3b 36 db 39 3b 46 84 2f 3c
       0.019521788 0.0049400753 0.002835942 0.010712689
0000b0 04 c5 c1 3b d3 63 11 3c cd 6c 1b 3b 53 d0 44 3c
       0.0059133787 0.008873898 0.0023715973 0.012012559
0000c0 d4 d8 21 3c 8e 35 2a 3c 20 de c4 3b cf 04 bb 3b
       0.009878356 0.010388745 0.0060079247 0.0057073603
0000d0 17 15 13 3c 0e 37 ab 3c 55 92 05 3c 70 26 32 3b
       0.008977196 0.020900276 0.008152564 0.0027183555
0000e0 98 66 28 3b 79 4f 2c 3b d9 e9 00 39 da ae 82 3b
       0.0025695916 0.0026292487 0.00012294146 0.003988129
0000f0 8f dd 82 3a ad 47 12 3a 43 63 fc 3a 26 c0 9d 3a
       0.0009984242 0.00055801385 0.0019255657 0.0012035414
000100 1c bc ec 3a 7c f6 dd 39 78 af 19 3b 98 6f f6 3a
       0.0018061432 0.0004233605 0.0023450535 0.0018801568
000110 b7 fc 06 3b 3a f3 94 3a 19 eb 92 3a 82 f3 e9 3a
       0.0020597407 0.0011363991 0.001120898 0.001784906
000120 b8 97 87 3b 20 3b e1 3a c6 ad 08 3a f4 f8 0e 3a
       0.0041379593 0.0017183758 0.00052138825 0.0005453967
000130 66 b4 1c 3d a0 92 8e 3c 14 de 5b 3d fc 80 fe 3c
       0.03825798 0.0174039 0.053678587 0.031067364
000140 0e cd a1 3c 37 3b 06 3d e8 08 b8 3c 20 6b 3d 3d
       0.019751098 0.032771315 0.022465184 0.04624474
000150 99 f2 07 3d cd 20 18 3d 1d f0 ef 3c 50 03 0a 3d
       0.033190344 0.037140656 0.0292893 0.033694565
000160 ac 62 12 3d a3 4e eb 3c 91 05 1e 3d e8 44 64 3d
       0.035738632 0.02872402 0.038579527 0.055729777
000170 62 a3 f3 3c 4f 4c e3 3c 7e 40 ca 3c ee db e6 3b
       0.029740993 0.027746348 0.024688955 0.0070452606
000180 d4 b3 83 39 e5 56 2e 3c 0e 3f 39 3b da e9 ba 3a
       0.0002512025 0.010640834 0.0028266343 0.0014260367
000190 c3 ac ac 3b 0b da 47 3b 54 73 9c 3b 2f a9 ad 3a
       0.0052696182 0.0030494954 0.0047744904 0.0013249273
0001a0 cc 2f fc 3b c1 c9 a9 3b 8b f2 b4 3b e0 eb 5b 3b
       0.0076961275 0.0051815216 0.0055220774 0.003355734
0001b0 2e a6 4b 3b d6 8d a0 3b a5 3e 38 3c 50 1a 90 3b
       0.0031074393 0.0048997207 0.011245404 0.004397668
0001c0 c8 1f bc 3a c3 59 a2 3a 5f a3 8d 3b c6 8f 38 39
       0.0014352733 0.001238637 0.004322454 0.00017601167
0001d0 be 98 d0 3b 65 7e d1 3a b7 c8 64 3a 23 41 56 3b
       0.0063658645 0.0015983103 0.00087274186 0.0032692633
0001e0 d5 2b fb 3a d2 c8 3d 3b 6c e9 3a 3a fb 83 71 3b
       0.0019162843 0.002895881 0.00071301195 0.0036852348
0001f0 d2 ee 44 3b 61 9e 4e 3b 6f 7d e9 3a 4a 33 e5 3a
       0.0030049575 0.0031527507 0.0017813871 0.0017486599
000200 a3 bc 3f 3b 43 e7 de 3b fc d3 2e 3b 1f 90 65 3a
       0.0029256723 0.006802471 0.0026676646 0.00087571325
000210 e7 26 5b 3a b1 12 c7 3b 7e ee 8c 39 ce 58 15 3c
       0.0008359984 0.0060752262 0.0002688057 0.009115411
000220 05 ae 1c 3b ea 10 a9 3a 0b 3d 9b 3b 91 fe 31 3b
       0.0023907435 0.0012898718 0.0047375015 0.002715979
000230 0f a3 81 3b 7c 36 94 3a dc 89 d6 3b ae f1 99 3b
       0.0039562057 0.0011307742 0.006547196 0.004698
000240 d6 87 9e 3b 8b b8 45 3b c0 f7 3d 3b fc cd 85 3b
       0.0048379702 0.003016981 0.0028986782 0.004083393
000250 b7 5f 22 3c dd 7e 77 3b 73 46 a1 3a e4 e6 a2 3a
       0.0099105155 0.0037764825 0.0012304321 0.001242843
000260 19 62 01 3c 2f 8a b0 39 ff 60 4e 3c 8a df 4d 3b
       0.007896923 0.0003367229 0.012596368 0.0031413757
000270 c8 c5 d7 3a 47 87 c0 3b f2 97 69 3b 8a 80 c7 3b
       0.0016462142 0.0058755013 0.0035643545 0.006088321
000280 0a 96 bb 3a 01 0c 0b 3c 3b 85 ba 3b f6 f4 c4 3b
       0.0014311683 0.008486749 0.005692152 0.006010647
000290 10 92 74 3b 44 74 71 3b 3c f0 b0 3b 47 47 4e 3c
       0.0037318505 0.0036842981 0.005399732 0.012590236
0002a0 46 14 a4 3b 60 38 d9 3a c6 93 ce 3a 82 d8 ab 3b
       0.0050072996 0.0016572587 0.0015760593 0.0052443156
0002b0 ac 30 a7 39 1f d4 f3 3b cf a6 04 3b 5a fd 97 3a
       0.00031888986 0.0074410583 0.0020241027 0.001159589
0002c0 c8 09 7f 3b 1a a4 0f 3b 34 b7 4c 3b f8 dc 72 3a
       0.0038915742 0.002191788 0.0031237127 0.00092644943
0002d0 f4 84 af 3b 71 4e 7c 3b 74 a7 80 3b b1 ad 1d 3b
       0.0053564254 0.0038498903 0.003926212 0.0024059827
0002e0 bc 7d 16 3b 62 49 68 3b bd a3 05 3c d9 f2 4d 3b
       0.0022963127 0.003544413 0.008156714 0.0031425266
0002f0 bd 55 84 3a 74 32 8a 3a 38 f7 36 3c 5d 1f 2c 3a
       0.0010096353 0.0010543601 0.01116734 0.0006565953
000300 6d eb 82 3c 45 e6 8d 3b b4 e3 1d 3b cb 37 11 3c
       0.0159814 0.004330429 0.002409202 0.0088634
000310 a9 51 a2 3b 1b c5 ce 3b 84 7e 0d 3b 8d b1 2a 3c
       0.0049535823 0.006310118 0.0021590302 0.010418308
000320 d1 ad 01 3c f6 28 09 3c f9 b8 a8 3b e3 53 a1 3b
       0.007914976 0.008371582 0.0051490036 0.00492333
000330 bd 90 ee 3b 4e 22 8e 3c 04 49 e7 3b 2b cf 22 3b
       0.0072804377 0.017350342 0.0070582647 0.002484272
000340 bb 71 19 3b fc c8 79 3d dc a7 28 3d 70 41 b3 3d
       0.0023413736 0.06098269 0.04117571 0.087527156
000350 93 7e 82 3d dc 9e 21 3d 95 2d 52 3d 41 d0 1c 3d
       0.06371798 0.03945814 0.051313 0.038284544
000360 07 da ba 3d e2 74 8a 3d 13 8f 31 3d 0c e4 4f 3d
       0.09123617 0.06760575 0.043349337 0.05075459
000370 c6 f4 7a 3d ec b6 5f 3d 99 f8 38 3d 51 06 8d 3d
       0.06126859 0.054617807 0.045158956 0.068859704
000380 29 75 a9 3d ee 22 34 3d d8 5c 48 3d db 26 3a 3d
       0.082743 0.043978624 0.048916668 0.04544721
000390 47 74 50 3b 3e b5 d7 38 03 f2 a2 3b 8b fa 9c 3a
       0.0031807588 0.00010285758 0.0049726977 0.0011976523
0003a0 55 c7 21 3a 18 9d 1c 3b 21 4e c2 3a 3b a8 0b 3b
       0.00061713654 0.0023897346 0.001482431 0.002130999
0003b0 bf 5e fd 39 74 5e 59 3b a5 07 23 3b bd a1 24 3b
       0.00048326512 0.003316787 0.0024876383 0.0025120818
0003c0 d0 ee c2 3a e3 e6 c0 3a 61 94 0d 3b c0 f5 a7 3b
       0.0014872197 0.0014717247 0.0021603333 0.005125731
0003d0 8f d9 09 3b 1d 36 2c 3a dd 26 26 3a ee d2 43 3c
       0.0021034216 0.0006569343 0.00063381885 0.011952145
0003e0 5c 1d 2e 3c 51 b0 a9 3b 18 d2 94 3b 04 ee fd 3b
       0.010627117 0.0051784893 0.0045416467 0.007749321
0003f0 3b e3 09 3c 7b 25 98 3c f7 03 7e 3b f2 ad 0e 3c
       0.008415992 0.01857256 0.0038759687 0.008708464

exp_avg f4 [32]
000000 84 55 13 31 c6 71 92 af 3a 21 96 b0 e8 c2 35 30
       2.1439925e-09 -2.6638086e-10 -1.092338e-09 6.6124395e-10
000010 9a eb 44 b1 38 f6 15 30 bd 4b cf 31 24 3b 65 2f
       -2.8655678e-09 5.455578e-10 6.0331034e-09 2.084844e-10
000020 8d 2a 0b 30 1d 5e 33 b1 75 cb 8c 30 66 d8 bb 31
       5.0628374e-10 -2.6101425e-09 1.0244167e-09 5.467018e-09
000030 4a 84 c2 b0 4b 15 9a 31 e9 c6 13 b1 a5 03 e3 2f
       -1.4152957e-09 4.4844106e-09 -2.1504383e-09 4.129365e-10
000040 ef 6b 47 31 70 15 93 31 10 7f 65 b1 ac 78 4a b1
       2.9019664e-09 4.2807002e-09 -3.3396113e-09 -2.9463463e-09
000050 54 9a 5e 31 22 7c b3 b1 46 88 7c 30 0b 9b 74 b1
       3.2392977e-09 -5.223698e-09 9.187072e-10 -3.5594805e-09
000060 40 0c 0e ae d3 70 dd 30 9e 3b 7d b1 77 b3 9a b1
       -3.2297942e-11 1.6111933e-09 -3.6850234e-09 -4.5023927e-09
000070 d9 b2 ae b0 62 3e e3 30 6d d5 42 31 69 fb 75 32
       -1.2710998e-09 1.6534154e-09 2.8352034e-09 1.4318041e-08

exp_avg_sq f4 [32]
000000 06 bc b8 24 92 bd d5 22 03 c4 96 25 d4 c1 85 24
       8.0115804e-17 5.793448e-18 2.6153675e-16 5.800791e-17
000010 8c 65 74 26 52 c4 1d 25 89 df c7 24 c1 7a 18 25
       8.4792127e-16 1.3684095e-16 8.6681176e-17 1.3225489e-16
000020 ee e0 47 25 52 04 fb 24 04 db 7d 25 ba 47 c1 26
       1.7336708e-16 1.0886122e-16 2.2018457e-16 1.3411507e-15
000030 25 15 8e 24 71 28 45 25 71 a9 9d 25 1e 2c b3 24
       6.1618504e-17 1.7100728e-16 2.7349977e-16 7.770361e-17
000040 50 1f 09 25 38 72 7d 26 99 d1 48 25 bd 9c 58 25
       1.1893465e-16 8.7931803e-16 1.7418249e-16 1.8788119e-16
000050 94 26 9e 24 f4 59 e3 25 27 08 48 25 48 04 bf 25
       6.858693e-17 3.9439178e-16 1.7349997e-16 3.313612e-16
000060 3a 4b 9d 26 2a 3e a1 25 cd 01 95 26 22 ea 37 25
       1.0914454e-15 2.7971172e-16 1.033944e-15 1.5952047e-16
000070 bf ae 00 25 9d 3c bd 24 64 51 c9 24 dc 59 57 26
       1.1161437e-16 8.206837e-17 8.7307736e-17 7.471489e-16

exp_avg f4 [32]
000000 fc 52 c3 3b 9b c1 5e 3b c4 85 6f 3a 2f 3c 0d 3c
       0.0059608202 0.003398991 0.0009137059 0.008620306
000010 17 0d 5a 3a bd f9 e6 bb 9d 87 a2 3b 51 86 c6 3b
       0.00083179906 -0.007048814 0.004960014 0.006058492
000020 c0 3f ba bb 08 c2 ca ba b3 75 2a 3c c0 c1 c7 3c
       -0.005683869 -0.0015469203 0.010404038 0.02438438
000030 ed af 87 bb bc 1c b1 3a 15 6d 73 3c 82 42 34 bb
       -0.004140845 0.0013512592 0.01485755 -0.0027505462
000040 c5 59 d8 ba 13 a6 07 3b 78 3d 0d bb c3 dd dd 3b
       -0.0016506246 0.0020698353 -0.002155153 0.006770821
000050 72 a3 8e 3c f2 4b 09 3c e7 42 7e 3b a9 a7 9f bb
       0.017411921 0.008379923 0.00387972 -0.0048722816
000060 60 68 8b 3b 43 7f 13 3b c9 4f e2 3c 7d 3f 94 b9
       0.004254386 0.0022506274 0.027625935 -0.00028276062
000070 30 6e 7b 3b dc 6f af 3b fc 0e ba 3a 50 2a 02 bc
       0.0038365237 0.005353911 0.001419514 -0.007944658

exp_avg_sq f4 [32]
000000 db b8 1f 3c 22 97 3c 39 89 e6 1f 3c 03 75 13 3c
       0.009748663 0.00017985379 0.009759554 0.009000066
000010 e1 6b da 3b 38 4b 09 3c ef c9 19 3c 0a 0c 33 3c
       0.006665692 0.00837975 0.009386524 0.010928163
000020 0e ad 3e 3c 1d fa 3b 3c 66 5f 34 3c 4b ad 01 3c
       0.011637939 0.011473206 0.011009073 0.007914851
000030 1d de 03 3c 21 36 1c 3b f9 76 25 3c 73 f2 02 3c
       0.008048561 0.0023835974 0.010099166 0.007992375
000040 b0 9f 1f 3c 03 38 c9 3b be fa f1 3b 87 1d 07 3c
       0.009742662 0.0061407103 0.007384627 0.008246786
000050 20 9f 13 3c 27 95 5d 3b 8a d1 0c 3c 3c 91 23 3c
       0.009010106 0.0033810826 0.00859488 0.009983357
000060 fd 74 81 3b 5b d5 01 3c 02 a5 d9 3b d4 51 16 3c
       0.0039507137 0.007924403 0.006641985 0.009174783
000070 88 fd fc 3b e4 60 0f 3c 15 25 0b 3c ab c5 41 3c
       0.007720653 0.008751128 0.008492728 0.011826913

exp_avg f4 [32]
000000 12 2e 4a bb 54 42 13 3b 19 f2 d9 bb e6 a7 57 bc
       -0.0030850214 0.0022469955 -0.0066511747 -0.013162589
000010 4d e9 a2 bc c1 a4 cc bc 95 fa 66 bc 2f 37 3d bc
       -0.019886637 -0.024980905 -0.014097829 -0.011548801
000020 4b 11 e4 bc 32 08 58 bc cd 3a 10 bc 71 0a 24 3c
       -0.027840277 -0.013185548 -0.008803082 0.010012255
000030 ce 61 a9 bc 6a 7a 3b 3b 45 2c ab 3b 3f 12 25 bc
       -0.02067652 0.00286069 0.005223783 -0.010075151
000040 75 69 1a bc b6 d5 98 bb fa e9 fe bc d7 86 4c bc
       -0.009424557 -0.004664148 -0.031117428 -0.01248332
000050 cf 53 61 3b 37 7b 6d bc 54 d4 4b bc da bc a6 bc
       0.003438223 -0.014494709 -0.01244076 -0.020353723
000060 48 2b 72 bc ab 0e 42 bc 4d e3 5f 3c 1c 36 83 bc
       -0.014780827 -0.011844317 0.013665033 -0.016017012
000070 76 70 39 bc 64 27 38 bc 95 4b 2a bc 92 9a e5 bb
       -0.011318317 -0.01123986 -0.010393997 -0.0070069516

exp_avg_sq f4 [32]
000000 a7 7a 7a 3c 07 21 c1 38 d9 c7 83 3c 89 cb 70 3c
       0.015288032 9.209109e-05 0.016086506 0.014696964
000010 9f 56 8c 3c b1 a7 5f 3c 69 0a 7b 3c da 15 91 3c
       0.017131148 0.013650821 0.015322306 0.017710615
000020 d4 ba 99 3c 88 f9 96 3c 23 13 94 3c 07 70 83 3c
       0.018765844 0.018429533 0.018075531 0.01604463
000030 b6 d3 54 3c e9 e3 ab 3b 1e c4 87 3c 38 5b 55 3c
       0.012989929 0.005245675 0.016573008 0.0130222365
000040 2f 09 83 3c 5e 5c 7c 3c d8 f9 58 3c 93 3a 59 3c
       0.01599559 0.015402881 0.013243161 0.013258594
000050 2a 69 74 3c cb 1a 01 3c dd 37 69 3c 8c f2 85 3c
       0.014917651 0.007879923 0.01423451 0.016351007
000060 70 c1 0c 3c b8 a4 5b 3c df 92 8a 3c cf f3 75 3c
       0.008591041 0.013405971 0.016915737 0.015011742
000070 a0 0a 4a 3c fc 88 6a 3c ff c5 64 3c 38 c9 19 3c
       0.012331635 0.014314886 0.013963222 0.009386353

exp_avg f4 [1, 32]
000000 d3 73 2e bc 22 fa 9b 3b 0d 8e f9 3b f0 aa 15 bb
       -0.010647732 0.0047600428 0.0076158107 -0.0022837482
000010 84 a4 0b 3d d6 70 82 3d 98 82 e5 3b 01 84 20 3a
       0.03409244 0.06369178 0.0070040934 0.0006123186
000020 3a c3 54 3d b0 df a8 3c 76 35 60 bc 09 79 8f bd
       0.051943995 0.020614475 -0.013684621 -0.070055075
000030 74 7d 46 3d e9 78 c7 bb 75 13 35 bd 94 ec d5 3c
       0.048459485 -0.0060874117 -0.04420801 0.026113786
000040 c7 ac 99 3c 4e 27 80 3b be 41 89 3d 52 83 8f 3a
       0.018759144 0.0039109355 0.067019925 0.0010949171
000050 42 a6 5c bd 6a 8d 85 bb 07 8e 29 3c fc 90 29 3d
       -0.053869493 -0.0040756958 0.010348803 0.041398033
000060 ba f1 d9 3b fb 2d 5e 3c bf f1 b1 bd 8a 9f cd 3c
       0.0066511305 0.013560767 -0.086886875 0.025100488
000070 d4 85 18 3c a7 b2 21 3b 23 9e 4f 3c 6c 20 db 3c
       0.009309251 0.0024673135 0.01267198 0.026748858

exp_avg_sq f4 [1, 32]
000000 0c 4b 42 3e 6b 08 8b 3a f1 fe 47 3e 26 5f 59 3e
       0.1897394 0.0010607367 0.19530846 0.21227702
000010 bb 8e 20 3e 3f e5 55 3e 0c a4 39 3e 2c 92 3c 3e
       0.15679447 0.20888232 0.18128985 0.18415135
000020 e6 91 3c 3e 2b bb 26 3e 5a 6e 2d 3e b7 1b 16 3e
       0.18415031 0.16282336 0.16936627 0.1465901
000030 c6 fb 52 3e fd 65 2d 3d fd 2e 2d 3e 4c a2 48 3e
       0.20603856 0.04233359 0.16912456 0.19593161
000040 d6 11 49 3e 11 f1 3e 3e 14 e3 54 3e 47 b5 34 3e
       0.1963571 0.18646647 0.20789748 0.17647277
000050 a9 bd 47 3e 57 d6 79 3d 2d d5 56 3e 5e 05 35 3e
       0.19505943 0.060995426 0.20979758 0.17677829
000060 5a 45 79 3d 41 fb 4d 3e f5 de 14 3e 68 83 3a 3e
       0.060857154 0.20115377 0.14538176 0.1821419
000070 1f d3 51 3e b0 2f 47 3e 7b 3a 3b 3e 04 83 0b 3e
       0.20490693 0.19451785 0.18284027 0.13624197
