models/model_02_CDMS-NNRegressor/trained-model.pt (torch, 15206 bytes, 17 tensors)

nn.Linear0.weight f4 [32, 19]
00000000: ec77 11be f9e0 e43e ad0b 3f3d 1fa3 7e3c
00000010: e0fb 76bd 64a0 e13d 18e5 3abd 8ba5 033d
00000020: 7067 0dbe 25fd 2fbd b4ef 9cbc 895b 8ebc
00000030: 9399 013e 521f 9f3d e04b e3bd f78d febd
00000040: d64f 2a3e b8c1 ecbd 8b66 c03e b2f8 1dbc
00000050: 3019 b83e f2cf df3d a985 613d 372f 9abd
00000060: 3ae8 cd3d 53f1 073e d939 4a3d 88a6 353e
00000070: 860f 81bd 81d3 2f3c 905c 4f3d b0b1 513c
00000080: ab2f b63e 391e c0be b452 d13c 6c77 893e
00000090: d28a 803d 1a4d 8f3e 5ff6 9bbd 88c3 d53e
000000a0: b0bf f3bd aba5 973e b582 3e3e 4547 f43d
000000b0: 8746 a1bc 869c 223d 52c7 8cbd bdc5 883d
000000c0: ce04 78bc 64f8 4c3c 0165 1ebd bf89 8a3c
000000d0: 768d 43be 5375 febd 66b7 c33d dd77 cbbb
000000e0: d50b ce3e b92f fa3d 9c55 623e bd95 a9bd
000000f0: e20d 063e d2e2 f4be 8e9e 3c3d f96b 8e3d
00000100: 224b 87bd 016b a0be 4601 f0bc d47e d33d
00000110: bd7c ebbd 6a11 103e 6981 17be b02b 88bc
00000120: ebc1 40be 68a6 4538 6e59 40be dc86 603e
00000130: 7c97 e23d 34a8 d83d 6830 57be 9777 6cbe
00000140: 259d 4abe d015 2dbe ddac 003e 2b56 d33c
00000150: cb74 b5be 5059 573c 081e dcbb 111b 7fbc
00000160: de4a e43c d1b6 73bd 0163 fe3d 297a cabd
00000170: 37fe 4c3d 307a 41bb 1c0f bdbc 2b33 32be
00000180: eb24 5b3e a6d0 bd3e 2ffb 753e 485e b2bd
00000190: 8358 20bc fc49 8c3e f89e 53be 3322 81be
000001a0: 8396 0dbc 6674 753d b851 8cbd 3f92 c73c
000001b0: bf93 11bd 4237 e83c 0423 183d e57f 023d
000001c0: 7817 743c ec7c 83be e4d5 dfbc ded7 143e
000001d0: fef7 10be 2f4e 883e f103 5c3e 0f04 a43d
000001e0: 41f1 22bd fdf7 593d 07d4 f0bd 45c1 fabb
000001f0: 41d2 64bd 509c 463d 08df a4bd 3b15 773d
00000200: 9b96 6fbe 27c7 9ebd 2888 36bd 45c7 33bd
00000210: bf5b fa3e ddd7 0a3d e279 993e 7183 a13e
00000220: d187 e83c f179 86be ecd3 a43d 3d39 413e
00000230: f4f6 6ebe 08e2 4cbd d5a9 fe3c 9617 8bbd
00000240: ad46 7b3d 5bbd 40bd d6bf 713b f1c5 ab3d
00000250: a1bd 37bd 88e5 76bd d632 35bd d1aa 02bd
00000260: 079f bd3d 9c7e d73e 1157 d5bd 1b63 f63d
00000270: 7c85 6cbd 53ae 3c3e bf79 66bb 02ff 8fbd
00000280: 7e25 4cbe c9c9 853c 3415 d9bc c0bc b63c
00000290: 1e9d aa3b ed90 86bd 6ae8 28be f692 d1bd
000002a0: 46df 7dbc 6a30 89bd 8409 2a3d 0c81 66be
000002b0: d7a1 093f 5e90 e4bc 8aa1 483e 60d0 11bb
000002c0: 96e0 c23d 0461 0ebc ccfc 323d 55ce 13be
000002d0: eb90 4ebd 44e2 a2bc ad3b bc3c f60a 7c3d
000002e0: d6a7 283d e313 ab3d 1025 ee39 5e0d 4d3a
000002f0: ae62 75bd 0738 923e d8a8 8abd 4a4c 003f
00000300: f379 2abe cda5 af3e 6446 65bd a5db c03d
00000310: 590e 1fbd 8135 113e ff47 2dbe 5338 833b
00000320: 19d4 853d 29bd e4ba 3ff6 1dbe 3e42 f13d
00000330: 6801 873c d0ea babd eb1c b33c 07ab 6b3c
00000340: 92f9 a83e 0dd6 6e3d f50e 623e fa03 9abe
00000350: 5eba 90be 9134 a3bd fc30 09be 89e7 3e3e
00000360: 2301 e13c 9f83 5fbe d6f6 013c db4d 76bc
00000370: fabe 7ebc f35d 19bd 3123 c93d c941 b93d
00000380: 9b8d e0bd 63d6 b33c d216 83bb 389b 81be
00000390: 141b dcbd ffce d63e 1832 dbbd 9f26 783e
000003a0: e473 063e f196 203d b56b 4cbe b414 a63d
000003b0: a210 0ebe 7065 1bbc 229e 8fbc b778 edbc
000003c0: c064 bfbc 493d 4d3d 8872 a6bd dd21 433d
000003d0: c693 05bc a81e 8bbd 5af9 f43e c790 8dbe
000003e0: a521 b03e e744 063e f573 6f3e bd5f aebd
000003f0: f090 173e 4720 423e 41c3 a03d 9741 233e
-0.14205903 0.4470289 0.046641994 0.015541821 -0.0602988 0.1101692 -0.045628637 0.032140296
-0.1380899 -0.042966027 -0.019157268 -0.017377632 0.1265624 0.07769646 -0.110984564 -0.124294214
0.16632017 -0.115603864 0.37578234 -0.009641813 0.35956717 0.10928334 0.05505911 -0.07528537
0.10054059 0.13275652 0.049371574 0.17739308 -0.06301789 0.010731579 0.050625384 0.012798712
0.35583243 -0.37523058 0.025552131 0.26848924 0.06276478 0.2798851 -0.07615351 0.4175074
-0.11901796 0.29618582 0.18604548 0.11927656 -0.01968695 0.039700054 -0.06873955 0.066783406
-0.015137864 0.012510393 -0.038670544 0.016911386 -0.19096932 -0.124247216 0.09556465 -0.006209357
0.40243402 0.122161336 0.2210297 -0.082805134 0.13091233 -0.478293 0.046049647 0.06954188
-0.06606127 -0.31331638 -0.029297482 0.10326925 -0.11498401 0.14069143 -0.1479546 -0.016622394
-0.18823974 4.7123438e-05 -0.18784115 0.21926445 0.110640496 0.10578957 -0.2101456 -0.23092495
-0.19786508 -0.16902852 0.12565942 0.025797924 -0.35440668 0.013143852 -0.006717447 -0.015570418
0.02786773 -0.05950052 0.12421227 -0.098865815 0.050047126 -0.0029522292 -0.023078494 -0.17402332
0.21400802 0.3707325 0.240216 -0.08709389 -0.009786728 0.27400196 -0.2066611 -0.25221404
-0.008641842 0.05992546 -0.06851524 0.024361728 -0.035541292 0.028346661 0.03714277 0.03186025
0.0148981735 -0.25681245 -0.02732367 0.14535472 -0.14157102 0.2662215 0.21485879 0.080085866
-0.03978086 0.053215016 -0.11759191 -0.007652434 -0.055864576 0.048488915 -0.08050352 0.06032298
-0.23397295 -0.07752829 -0.044563442 -0.04389121 0.48898122 0.03389727 0.29975802 0.31545594
0.028385075 -0.2626491 0.080482334 0.18869491 -0.23336393 -0.050020248 0.031086842 -0.06791608
0.0613467 -0.047055583 0.0036888025 0.08387364 -0.04485858 -0.06027749 -0.044237934 -0.031901184
0.09258848 0.42088783 -0.10416997 0.120306216 -0.057744488 0.18425874 -0.0035167781 -0.07031061
-0.19936177 0.01633157 -0.026499368 0.0223068 0.005206718 -0.06570611 -0.16494909 -0.10233109
-0.015495127 -0.066986874 0.04151298 -0.22510165 0.53762573 -0.02790087 0.19592872 -0.0022249445
0.095154926 -0.0086901225 0.043698117 -0.14434178 -0.050431173 -0.019883282 0.022977674 0.06153389
0.041175686 0.083534025 0.0004542251 0.0007822121 -0.05990856 0.2855837 -0.06770486 0.5011641
-0.16648082 0.34306183 -0.055975333 0.09416894 -0.038832042 0.14180566 -0.16921996 0.004004517
0.06534595 -0.0017451394 -0.15425967 0.11780213 0.016480163 -0.09126818 0.021864375 0.014384038
0.33002907 0.058309603 0.22076018 -0.3008116 -0.28267187 -0.079690106 -0.13397592 0.18643011
0.027466362 -0.21827553 0.007932385 -0.015033211 -0.015548462 -0.037443113 0.09821165 0.09045751
-0.10964509 0.021952813 -0.004000523 -0.25313735 -0.10747352 0.419548 -0.10702914 0.24233483
0.13130146 0.03920645 -0.19962962 0.081094176 -0.13873532 -0.009484634 -0.017531458 -0.028988225
-0.023363471 0.050107274 -0.08127314 0.047639716 -0.008152908 -0.067929566 0.4784649 -0.2764952
0.3440067 0.13112222 0.23384078 -0.085143544 0.14801383 0.18957625 0.07849742 0.1594299

nn.Linear0.bias f4 [32]
00000000: 5e3b c73d 01c2 44be 1f06 80be 3619 6a3d
00000010: 3578 a53b 93a2 acbd 4136 e2bc 436b b2bd
00000020: 6bb8 223d cad1 36be 9069 853d bc61 4f3e
00000030: f9d0 e43d cfa4 fdbd fa71 553d 10e2 6e3e
00000040: b701 ba3d fb0f 01be 5601 d03d 1686 42be
00000050: dec9 013d fe56 9e3d ae76 413e c7f3 25be
00000060: 4770 963e 34c3 1c3e 148e 3fbe 21a4 133e
00000070: 8ec4 2bbe 8270 363e d192 7e3d 74ad 923d
0.0972812 -0.19214632 -0.2500467 0.05715295 0.00504973 -0.08429446 -0.02761376 -0.08711865
0.039726656 -0.17853466 0.06514275 0.20252126 0.11172671 -0.1238495 0.05211065 0.23328424
0.09082358 -0.12603752 0.10156505 -0.18996462 0.031686656 0.07731436 0.18892929 -0.16206275
0.29382536 0.15308839 -0.18706542 0.14418079 -0.16774198 0.17816356 0.062151734 0.0716199

nn.BatchNorm0.weight f4 [32]
00000000: 8cbf b33f 23d1 a53f d52f c03f 7cac 933f
00000010: 1d61 bd3f 86e9 bb3f e9cf b33f c9c9 ba3f
00000020: 89fb ad3f 72ca bc3f 6e17 c13f 4dab c03f
00000030: 14f2 bb3f ac1b ba3f 407b b73f 7403 af3f
00000040: 6726 ab3f 2220 c23f 38b0 b13f bfbd 8c3f
00000050: 6ae9 a93f 968e a73f 48a5 bc3f 918c be3f
00000060: 0c1d a23f 924a ad3f 54e3 b83f 5933 b53f
00000070: 3b32 c13f bfbb b73f 23b1 b83f 015d c63f
1.404283 1.2954448 1.5014597 1.1537013 1.4795262 1.4680641 1.4047824 1.459283
1.3592387 1.4749281 1.5085275 1.5052277 1.4683251 1.4539695 1.4334488 1.3672929
1.3371094 1.5166056 1.3881903 1.0995406 1.3274357 1.3090389 1.473794 1.4886647
1.2665114 1.3538382 1.4444375 1.4156295 1.5093454 1.435417 1.4429058 1.5497133

nn.BatchNorm0.bias f4 [32]
00000000: ceae 403f 3c46 293f ae1f 603f 542e 813f
00000010: f560 933e 4f92 1b3f 8e36 383f bbd2 383f
00000020: 7f2f 6e3f 329a 533f 4aa6 5a3f 7a1c 473e
00000030: b767 4e3f df57 523f 0ca5 4d3f dd92 493f
00000040: 0ed2 313f 2a1e 873e 3437 343f c42b 833f
00000050: 5de6 373f 1a57 333f f81e 143e 8ddf 593f
00000060: 2e23 773f 705c 2a3f ca6e 5b3f 19c2 3e3f
00000070: cb2f 693f 47cf 5c3f a2f0 463f 7549 123f
0.7526673 0.66122794 0.8754834 1.0092263 0.2878491 0.60770124 0.71958244 0.7219655
0.93041223 0.8265716 0.85409987 0.19444457 0.80627006 0.8216533 0.80329967 0.7873972
0.69461143 0.263902 0.70396733 1.0247731 0.7183588 0.7005478 0.14464939 0.85106736
0.96538055 0.665473 0.85715926 0.7451492 0.9108855 0.8625378 0.77710927 0.57143337

nn.BatchNorm0.running_mean f4 [32]
00000000: c3d7 9e3d 3162 65be c227 89be ff79 2c3d
00000010: e879 613c 5f5a bfbd 55c5 28bd 3e09 c7bd
00000020: 5e51 013d bfb6 46be e5d0 383d 5bdc 5a3e
00000030: 0d23 c83d 0980 1dbe 421e f83c 9477 4f3e
00000040: 1983 893d 5643 e9bd 4335 b13d 99c3 53be
00000050: 8864 f43c b7fc 2a3d ecfa 4b3e 4d4f 3fbe
00000060: 3ec2 903e b3df 053e c592 5cbe 2e84 f53d
00000070: fdf7 46be dfb5 263e 00fc 1a3d f2c4 7f3d
0.07755997 -0.22400738 -0.26788145 0.042108532 0.013761975 -0.09343409 -0.041203815 -0.0971856
0.03157174 -0.1940565 0.045121092 0.21373121 0.097723104 -0.15380873 0.030287866 0.20260459
0.06714458 -0.113897964 0.08652737 -0.20680083 0.029833093 0.041744914 0.19919938 -0.18682595
0.28273195 0.13073616 -0.21540363 0.11988102 -0.19430538 0.16280316 0.037837982 0.06244368

nn.BatchNorm0.running_var f4 [32]
00000000: d829 6e3f 9a98 6c40 dcae 683f 2ee4 e93e
00000010: 7510 5d3e 5a05 423e 36fd ad3e 413c 8e3e
00000020: 9934 2f3e a27e 153f 8a82 833f 3151 7f3e
00000030: 7da7 dc3e 4e2f 0c40 c297 683f f483 0c40
00000040: 7d30 d33f 59c3 053f 9e88 083f 78bb 3d3f
00000050: dcb9 203e 59a3 3a40 8845 f13e 590e 823f
00000060: 2b04 bf3e 360b b93f cd3b 0040 ae5c a33f
00000070: 8192 ba3f ab49 003f c43e 993f 3417 573e
0.930326 3.696814 0.90891814 0.456819 0.21588309 0.18947354 0.33982247 0.27780345
0.17109908 0.5839635 1.0274212 0.24933316 0.43096533 2.1903872 0.90856564 2.1955538
1.6499172 0.522512 0.5333346 0.7411418 0.156959 2.91622 0.4712336 1.0160629
0.37307867 1.4456546 2.00365 1.2762659 1.457596 0.5011241 1.197228 0.21004945

nn.Linear1.weight f4 [1, 32]
00000000: 8c66 08bf 89de 0fbf e141 02bf f2d1 0dbf
00000010: 1a39 ddbe 8ec2 09bf a1bd 0bbf 297c febe
00000020: d897 0dbf 5627 04bf b350 f7be 1072 f4be
00000030: f74d 02bf 56a6 01bf 29b7 07bf c0be 0cbf
00000040: ccc0 10bf de5a edbe 5c6c 0ebf c570 04bf
00000050: 440d febe 475c 10bf 1f7a fabe 7a83 f7be
00000060: 3b86 10bf 03d3 13bf 10a9 03bf 196f 05bf
00000070: 8bcb fcbe 5f29 01bf d813 0abf ad7a 00bf
-0.53281474 -0.56198937 -0.50881773 -0.55398476 -0.43207628 -0.5381249 -0.54586226 -0.49704102
-0.5530982 -0.5162252 -0.48303756 -0.47743273 -0.50900215 -0.50644433 -0.53013855 -0.5497856
-0.56544185 -0.4635839 -0.55634093 -0.5173457 -0.49619496 -0.56390804 -0.48921296 -0.48342496
-0.5645482 -0.57743853 -0.51429844 -0.52122647 -0.4937404 -0.5045375 -0.5393653 -0.5018719

exp_avg f4 [32, 19]
00000000: b5d4 e93b 525a 9bba 60c6 88bc 5cc0 d6bb
00000010: 306b 403c 0c11 823c d86f c13b fa16 a13a
00000020: f0e0 123b e15a 443a 775b 95bc f152 e4bb
00000030: 781e d73b 0f8f 54bb ce8f 023d 7336 15bc
00000040: f95d 0b3c bfbf 2d3c e802 c13b 73a5 59bb
00000050: 551c a83a a3c6 15bc 545e 84ba f210 edb9
00000060: 5cea 3a3b 7d08 c03b de04 78bb 4e90 2d3b
00000070: 61ad 203a 8dfa 8fbb 7f2b edbb 05a3 ffb8
00000080: 7150 d0ba 954a c13b eb74 20bb 399c 983b
00000090: 3d33 453b 1c1c 503b 66b1 883b 6a86 73bb
000000a0: 5783 1cbd bf91 9cbc 37e2 ab3b 64ce 8c3c
000000b0: ea57 a23c e43d 50bc 182b 14bc 83ac ea3a
000000c0: 53fd 3c3c 09fb b13c b25b ba3b 3800 f63b
000000d0: 76ab c33c 3ab5 833c 6c5a 433c 7eda dd3b
000000e0: 6ace 4e3c b780 583c f58c 183c 0c41 00bd
000000f0: 1da0 8ebb 7d30 413c d8ba f73c 10aa f43c
00000100: 06de 103c c770 1a3c 1e99 133b 1a4b e13b
00000110: de85 4f3c 45cf 253d 9372 cb3c 5bf2 123d
00000120: 807a 043c 9e38 a93c 60ae 123d 1d30 fe3c
00000130: 9a0e bf3c 4443 5f3d 44fb e1bb 8e7b 1f3d
00000140: 1847 49bd d95c f0ba 4631 773d 0ebc 593c
00000150: 27ee 353d 87fa dcbb ae0a 063d 7b6f 133d
00000160: 2acd 453d a61b 543d 04fd 97bc e537 4c3c
00000170: e8ff 6c3d 97df 583d f4dc 7b3d 2572 033d
00000180: fd97 803d a413 cd3c 93d9 773d 1369 24bd
00000190: 56e7 6b3c dad7 163d 2ba2 8f3d 9f66 813d
000001a0: 51aa 90bd 6a8d 023d f747 703c 59fa 563d
000001b0: 6675 3d3d 592c 0fbd 0fbd 56bd 5585 053d
000001c0: 8f58 813d 894a 7d3d f532 cc3c 7df3 0d3b
000001d0: 5455 f1bc ca16 75bc 65f4 c63c 6312 523d
000001e0: 6934 f53c de8d 42bc 705c c6bb 2185 5e3c
000001f0: 2fd8 4a3c a2a6 e43c 7ddb d93c 761a 943c
00000200: b2e9 723d a975 233a bbbf 0e3d bbb9 923c
00000210: f89e 603c 5f21 38bd adf6 f13c f02f 39bb
00000220: 4ad4 db3c f393 64bc 60de ca3b 7337 bf3c
00000230: 2374 413d 2856 193d 6a64 46bd 142d bebb
00000240: e8d2 343c 392f 073d cee5 9e3c 0f9b 6ebc
00000250: 7330 05bd d21e 9c3a b88a de3c eece f73c
00000260: db16 5cbc 6bfd 41bb 104b 9ebd 30d5 acbc
00000270: d6fa a2b9 d2cb 77bc a860 0a3d 3718 91bd
00000280: 57a9 e3ba db0b 9abc 1887 fe3b c4fe 2b3d
00000290: 89d2 23bc 4411 013c 9836 133d 63a2 8d3c
000002a0: 88ef cf3c 5963 fbbb 9b95 d53c d573 3b3c
000002b0: 2861 373b 0157 62bc 5349 64bb 1395 083b
000002c0: a36c 09ba c260 083c 1833 ebbb 35bc 363b
000002d0: fec1 88bc bb60 cbbc 7c8a 99bc ee77 ebbb
000002e0: 65ce 68bc e9df 8e3c 3966 83bc 7ee9 16bc
000002f0: 3db0 b53b 4529 3e3b 3f1c 51bc 8337 71bb
00000300: 513a 6cbc bd33 c9bb 70cc 133c 5bc2 e33b
00000310: db3a 503b e1ce eb3b 9b9f 833a 8c6c 86bc
00000320: 0829 6cbb 0bd1 553c e456 763b 246c fcbb
00000330: e70a 753c a47e 31bc 351c 2637 574f b73b
00000340: 3583 beb7 b66b 5d3c f24d 693d e53a 37bc
00000350: 579e 213d 9dd9 4fbd da1a 4bbb 3ca4 833d
00000360: 85a5 1b3c 1d2c 2c3d 1733 0d3d e68c 303d
00000370: 73da 113d 9bd0 2d3d 4d03 783d e30b 9bbc
00000380: 6c16 273c 6f0a 763d 97a9 3c3d 6974 883d
00000390: 85e5 8d3c ef9b 0d3b af24 a5bc 553f 44bc
000003a0: a0c3 2e3c a3d6 513c c393 293c c623 3bbc
000003b0: e524 dcbb 8816 fb3a ebf1 5dbc 367c 993b
000003c0: c37a 6c3c d374 0a3c a461 f33c 3b80 a0bc
000003d0: f40d d33b bdf2 0b3c c1f1 2d3c ecc4 3d3a
000003e0: 4470 d8b9 f646 aabc 3e03 0fbc 06a8 593b
000003f0: f50f 063c 9023 dc3b c945 bcbb 876e 9739
0.0071359524 -0.0011852479 -0.016696155 -0.0065536927 0.0117443055 0.01587727 0.0059032254 0.0012290173
0.0022411905 0.00074903487 -0.01823209 -0.006967895 0.0065649115 -0.0032433902 0.031875424 -0.00910722
0.008506292 0.010604798 0.005890239 -0.0033210188 0.0012825826 -0.009141597 -0.0010098913 -0.00045216788
0.0028521037 0.005860387 -0.0037844698 0.0026483717 0.0006129351 -0.0043938817 -0.007237851 -0.00012189712
-0.0015893114 0.0058987834 -0.002448375 0.004657295 0.0030090355 0.0031755036 0.004171538 -0.0037158974
-0.038211193 -0.019112466 0.005245473 0.017188258 0.019817311 -0.012710068 -0.0090434775 0.0017904196
0.011535007 0.021726148 0.0056872005 0.0075073503 0.02388547 0.016077626 0.011923414 0.006770431
0.012622455 0.013214282 0.0093109505 -0.031312034 -0.004352583 0.011791346 0.030240461 0.029866248
0.008841997 0.009426302 0.0022521685 0.006875408 0.012666194 0.04048087 0.024834907 0.03587566
0.008085847 0.02065688 0.03581083 0.031028802 0.023322392 0.05450751 -0.0068964083 0.03893619
-0.049140066 -0.0018338218 0.060349725 0.013289465 0.044416573 -0.0067437324 0.03272503 0.035994988
0.048291363 0.05178418 -0.018553264 0.012464498 0.05786124 0.052947607 0.061490014 0.03209128
0.062789895 0.02503378 0.06051023 -0.04013927 0.0143984165 0.036826946 0.07013353 0.063184015
-0.07063735 0.031873144 0.014665595 0.052484844 0.046254538 -0.034954403 -0.052426394 0.03259786
0.06315719 0.06183866 0.024926642 0.0021660023 -0.029459633 -0.014959047 0.024286458 0.051287066
0.029932218 -0.011874644 -0.0060535 0.013581545 0.012380644 0.027911488 0.026593918 0.018079024
0.0593049 0.0006235489 0.034850817 0.017910829 0.013709776 -0.0449537 0.02953657 -0.0028257333
0.026834626 -0.0139512895 0.00619106 0.02334187 0.047229897 0.03743568 -0.048435606 -0.0058037136
0.011036612 0.03300402 0.019396689 -0.014563336 -0.032516908 0.0011911041 0.027165756 0.030250039
-0.013433184 -0.0029600512 -0.07729161 -0.02109775 -0.00031085935 -0.015124278 0.033783585 -0.07084697
-0.0017369193 -0.018804481 0.0077675693 0.04199101 -0.009998926 0.007877652 0.035940737 0.017289346
0.025382772 -0.0076717553 0.026072314 0.011441191 0.0027981494 -0.013814689 -0.0034833744 0.0020840808
-0.00052423234 0.00832385 -0.0071777217 0.0027883176 -0.016694065 -0.024826398 -0.018742792 -0.0071859276
-0.014209365 0.017440753 -0.016039954 -0.009210942 0.005544691 0.0029016298 -0.012763082 -0.003680677
-0.014418201 -0.006140201 0.00902091 0.006950659 0.0031773362 0.0071962927 0.0010042073 -0.016409181
-0.0036035199 0.013050328 0.0037588412 -0.007703321 0.014956213 -0.010833416 9.9009385e-06 0.005594175
-2.2710863e-05 0.01351445 0.0569591 -0.011183475 0.039457645 -0.05074464 -0.0030991347 0.064278096
0.009499912 0.042034257 0.03447255 0.04310312 0.03560872 0.04243527 0.060550023 -0.018926566
0.010198217 0.060068544 0.04606017 0.066628285 0.017321358 0.0021607836 -0.020159094 -0.01197799
0.010666758 0.012807521 0.010350171 -0.011422103 -0.0067182654 0.0019156495 -0.013546447 0.0046839966
0.014433566 0.008450705 0.029709645 -0.019592395 0.0064408723 0.00854176 0.010616721 0.00072391215
-0.00041282375 -0.02078579 -0.0087288 0.0033211722 0.008182515 0.0067181066 -0.0057456237 0.00028883314

exp_avg_sq f4 [32, 19]
00000000: 0009 2d3c afe1 113a 59cb 8d3c 841a 8f3b
00000010: 16dc 2b3b 5900 043c cd23 ae3b e38b f43b
00000020: 6d23 0e3b c498 233c c7ec e73b 9c3f 013c
00000030: b34e 963b c650 9f3b 00f0 fe3b f133 8e3c
00000040: 42a4 ec3b 42c2 113b e127 213b f8e4 393b
00000050: d470 3039 6558 963b 5679 9f3a 3131 2c3a
00000060: 00f2 0e3b 1d88 a53a 043c fb3a 74e3 0a3a
00000070: 029d 293b d5ab ef3a d2de 023b 4935 963a
00000080: 2136 903a 158e 043b 911b 983b ce6e e53a
00000090: 5b71 0c3a a4cc 113a 9502 313c d02e ac39
000000a0: fdb7 893c bc7e 723b dcbc 123b b2fc 003c
000000b0: 636d be3b 2acc da3b 1b2f e73a 95da 283c
000000c0: 6217 fd3b d7c0 073c de2f a53b 67e5 ae3b
000000d0: 6c0f e33b ce92 8c3c 7702 fb3b a53f 263b
000000e0: c852 323b f827 693c 2c1f ce3b 8b83 c33c
000000f0: b2b4 4b3c 1c46 af3b 234d 0b3c faa4 f63b
00000100: d78f 8f3c 55f0 233c 4084 413c 6fab 423c
00000110: b303 593c 05a2 2c3c 9d73 103c 86bf 643c
00000120: b319 b43c 3cc0 243c b677 213c 8654 e73b
00000130: bdf6 7c3c bd86 7f3c c061 b63b dd1e c53b
00000140: 020b 263c b09d 093c c650 d43c dff4 d23b
00000150: d1ab 4d3c d366 5b3c 2113 fa3c d858 e43c
00000160: cfb2 eb3c 8b41 023d 2680 323b 698d 543c
00000170: c6d6 e73c 0ed9 d23c 01cd f93c 6bc8 c43c
00000180: 1476 c93c bb1e 443c 6c4f bd3c 9dcc be3c
00000190: a293 923c b0ca 943c ce20 1d3d b2e5 0a3d
000001a0: ff0c 903c acb9 bb3c a2af e83c 14ca 093d
000001b0: e4c7 c63c b057 c43c f11b 813c d6d4 893c
000001c0: 0fdf 0c3d c312 db3c 76d5 be3c a444 733a
000001d0: 1cab 113d 9cbd 0a3c bafa a53b 4391 913c
000001e0: f2df 333c 97e7 653c 09ed 853b afe8 a43c
000001f0: a703 8d3c ebba 8e3c 371d 2a3c d115 2c3c
00000200: 8bf3 803c 743b 143d ac15 7f3c 01c5 a83b
00000210: 65d9 a73b 0b2a 883c c9cc ed3b 5746 4d3c
00000220: 0388 073c a3f7 083c 7ddd 313c 7bdb 163c
00000230: 8ed6 aa3c 37d9 4f3c b989 323c 2546 3e3c
00000240: 0cfa 763c 46c5 693c 3300 333c e4c9 343c
00000250: 92f5 503c 83cb 193c 289a 4f3c 7e3e 2e3c
00000260: ff6c 923d 479e 5f3c 8cda d03d 3500 2d3d
00000270: f2e0 b83c 469d 853d a519 0a3d 991c 883d
00000280: d845 133d d634 433d 1932 3b3d e26d 4c3d
00000290: b196 2f3d 01fd 113d 4c96 653d 809b cd3d
000002a0: 96d6 313d 40b2 de3c 7409 c73c 712d a13c
000002b0: 7f4f 9b3a 04b1 ed3c b9ad e63b fbb7 8e3b
000002c0: 8234 683c bc4b 253c 2e28 4f3c b0b7 733b
000002d0: 4d84 813c 7e7d 5d3c 5978 6d3c 0644 173c
000002e0: 3f9d 163c 6738 543c 36e6 f33c f35b 5a3c
000002f0: d177 a03b 9607 a93b 30b3 0a3c 3c0c a039
00000300: 565d 553c cb25 573b 3d46 e93a 388d d33b
00000310: c83f 793b 6eea aa3b 6511 c63a fc29 df3b
00000320: e892 b13b 43df c73b 01a8 6b3b 0f99 623b
00000330: cd56 c13b 5c69 5a3c 6e82 a83b 5c6f da3a
00000340: 9030 d23a 5c83 873c e88f 843c 4feb 8e3b
00000350: 8bdc b53b 02f5 283c a446 e73b a4cd da3c
00000360: f2d2 d23b 3e7b 423c 73f0 5d3c 9a77 f23c
00000370: 263f d83c 9ce9 f03c 2215 013d 12cf 093b
00000380: a755 3a3c 0b90 f03c 09d6 d13c 9eca fb3c
00000390: 4b02 863c fdb0 043a 3ac5 d23c c114 c33b
000003a0: d304 4c3b dbed 383c 5b4a 0a3c f1d4 293c
000003b0: c495 3d3b ab12 573c 991f 373c 1ef6 453c
000003c0: d0d3 f43b 9395 f83b c9fc 283c bf6a d93c
000003d0: 9a3a 373c 8f6d 763b 4eb1 813b 0f22 7f3b
000003e0: fc1c 5c39 4150 d03b e25c cb3a 8cb8 533a
000003f0: ad32 3e3b 9a53 f43a 0aeb 283b 0cd7 253a
0.010561228 0.00055649405 0.017308878 0.0043671746 0.002622371 0.0080567235 0.0053143264 0.007462965
0.0021688596 0.009985153 0.0070777866 0.007888701 0.0045870184 0.004861924 0.007780075 0.017358752
0.0072217295 0.002224103 0.002459042 0.0028365236 0.000168267 0.004588174 0.0012166898 0.00065686094
0.0021811724 0.0012629066 0.0019167666 0.00052981754 0.0025880937 0.0018285463 0.0019969237 0.0011459972
0.001100246 0.002022629 0.004641958 0.0017504336 0.00053574675 0.0005561805 0.010803838 0.00032841275
0.016811365 0.003700181 0.00223904 0.007872747 0.0058113798 0.0066771703 0.001763794 0.01030602
0.0077237347 0.008285723 0.0050411066 0.0053374055 0.0069293287 0.017159846 0.007660206 0.0025367525
0.0027209986 0.014230721 0.006290337 0.023866436 0.012433218 0.005348934 0.008502278 0.007526991
0.017524643 0.01000603 0.011811316 0.011881693 0.013245511 0.010536675 0.008816627 0.013961678
0.02198491 0.010055598 0.0098552015 0.0070596365 0.015439686 0.015596089 0.005565852 0.006015642
0.01013446 0.008399412 0.025917422 0.0064378823 0.012553171 0.013391214 0.0305267 0.027874395
0.028771786 0.031800788 0.0027237027 0.012973168 0.028300654 0.025738265 0.030493261 0.024021348
0.024592437 0.011970217 0.02310916 0.023290927 0.017892662 0.018163055 0.038361363 0.03391046
0.017584322 0.022915684 0.02840406 0.033639982 0.024265237 0.023967594 0.015760394 0.01682512
0.034392413 0.026742345 0.023295145 0.00092799426 0.035563573 0.008468058 0.0050652893 0.017769461
0.010978686 0.014032266 0.0040870947 0.020130483 0.017213656 0.017423114 0.010382942 0.010503248
0.01574113 0.03618951 0.015569132 0.005150438 0.005122351 0.01662161 0.0072570783 0.012528977
0.008272174 0.008359822 0.01085603 0.009207602 0.02085426 0.012686065 0.010897093 0.011613403
0.015074264 0.014268225 0.0109253405 0.011034463 0.012753861 0.0093869 0.012671031 0.0106350165
0.071496956 0.013648576 0.101979345 0.042236526 0.0225682 0.06524138 0.033715863 0.066460796
0.03595528 0.04765781 0.045702074 0.04990948 0.04286832 0.035641674 0.056051537 0.10039425
0.043417536 0.027184606 0.0242965 0.019674988 0.0011849253 0.029015072 0.0070397523 0.0043554283
0.014172675 0.010088857 0.012643857 0.0037188344 0.015810156 0.013518689 0.014494025 0.009232527
0.009192764 0.0129529005 0.029772859 0.013327586 0.0048970957 0.005158375 0.008465573 0.00030526693
0.013022741 0.0032828923 0.0017797422 0.0064560436 0.0038032401 0.0052159345 0.0015111385 0.006810425
0.005419124 0.006099613 0.0035958292 0.0034576093 0.00590024 0.013330784 0.0051425016 0.0016665268
0.0016036201 0.01654213 0.016181901 0.004361547 0.0055499724 0.010312321 0.0070579816 0.026709385
0.006433838 0.011870204 0.013546097 0.029598046 0.026397299 0.029408269 0.031514294 0.0021027965
0.01137296 0.02936556 0.025614755 0.030736264 0.016358515 0.00050617737 0.02572881 0.005953402
0.0031130805 0.011287178 0.008440579 0.010365711 0.0028928379 0.013127009 0.011176967 0.012082605
0.007471539 0.00758619 0.010314175 0.026540158 0.011183405 0.0037601923 0.003957904 0.0038930213
0.00020991632 0.0063572233 0.0015515352 0.0008076511 0.0029021904 0.0018640638 0.002577486 0.0006326295

exp_avg f4 [32]
00000000: 0e66 7cb1 458e 49b0 7d18 df31 49c3 46b1
00000010: e83f 7531 ad17 acb0 7352 2631 dd0d 8631
00000020: 6700 3430 5407 80b1 cf6a 0cb0 1242 8431
00000030: e043 76ae 65c1 24b1 0bfc 57b1 205c e52e
00000040: 28ac 9531 37f5 1b31 8134 d331 9878 ef2d
00000050: d84f d531 b5f8 1fb1 1fe9 97b1 ca26 aab0
00000060: e464 6330 aa5c 7db1 b83c ef30 7437 abb1
00000070: 8736 1430 6a04 c430 f71f 0931 f222 6832
-3.6728838e-09 -7.332555e-10 6.492938e-09 -2.89238e-09 3.5688519e-09 -1.2521376e-09 2.4203046e-09 3.9014894e-09
6.548419e-10 -3.7261234e-09 -5.108349e-10 3.849217e-09 -5.599421e-11 -2.3975073e-09 -3.1429888e-09 1.0430079e-10
4.3560426e-09 2.2694857e-09 6.1468772e-09 2.7224709e-11 6.208193e-09 -2.3278919e-09 -4.421181e-09 -1.2380152e-09
8.2725493e-10 -3.686902e-09 1.7406796e-09 -4.9830593e-09 5.3919574e-10 1.4262131e-09 1.9954294e-09 1.3512123e-08

exp_avg_sq f4 [32]
00000000: f6fe 8125 3a1e 9424 75e8 8425 f086 a925
00000010: 2717 8325 eafb 2e26 0ad1 0926 1426 e325
00000020: 489d d626 5563 ee25 0084 4a25 c144 9025
00000030: 1ddd c025 7fb2 c124 4990 6c25 1c63 d024
00000040: b1bb 2725 f582 b324 3916 d425 268f 5d25
00000050: 4feb 2026 385a a124 7803 cd24 af93 2e25
00000060: 1d96 2526 387d 2a25 9357 bb24 4016 4c25
00000070: 0af5 0525 e2b1 de25 3483 5b25 06ec 0f26
2.25507e-16 6.4235974e-17 2.305587e-16 2.9408264e-16 2.2740566e-16 6.0709784e-16 4.7814724e-16 3.9404026e-16
1.4891864e-15 4.135373e-16 1.756543e-16 2.5026608e-16 3.3456523e-16 8.400279e-17 2.0518623e-16 9.037352e-17
1.4548533e-16 7.7850725e-17 3.6791196e-16 1.9217195e-16 5.5830054e-16 6.9975456e-17 8.8910454e-17 1.5142131e-16
5.7449316e-16 1.4787575e-16 8.124668e-17 1.7701718e-16 1.1618934e-16 3.86314e-16 1.9039675e-16 4.9932963e-16

exp_avg f4 [32]
00000000: af6f 1d3d 692b 1a3d ff92 1a3d 9b3c 263d
00000010: d0f0 b53c b3d1 1f3d 30aa c03c b8ae 153d
00000020: 1eee 253d 162f 553d 451a 513d e878 b93c
00000030: 6ec1 853c 6103 8a3c 3a3c ff3c 68ee 263d
00000040: 48bd eb3c 65cc d13c d5eb 0d3d a49a f83c
00000050: a030 493c d8d8 253d a61b d13c c32d 193d
00000060: f790 4d3d d8a0 db3c e79b 223d 1d27 423d
00000070: 1da9 063d 7332 603d eec7 f73c 8e0a e53c
0.038436588 0.037639055 0.037737843 0.04058514 0.022209555 0.039018344 0.023518652 0.036543578
0.04051029 0.052046858 0.051050443 0.02264066 0.016327586 0.016847314 0.031156648 0.040754706
0.02877678 0.025610158 0.034648735 0.030347176 0.0122796595 0.04049 0.02552588 0.037397157
0.050187077 0.026810095 0.03969946 0.047400583 0.032876123 0.054735612 0.030246701 0.027959134

exp_avg_sq f4 [32]
00000000: f398 2e3c afa8 583c 6280 203c 4b93 043c
00000010: 50ea 133b a2e1 283c 0a20 453c ebe0 1a3c
00000020: 7d1e 133c 3893 1d3c c2d5 0e3c e8c9 283b
00000030: 3da8 1b3c 075f 223c 0f5f 2c3c 0a24 3f3c
00000040: 3fe8 4d3c c866 1e3b de57 443c 8e1b c23b
00000050: b704 983b 20db 493c 2768 203b 403a 133c
00000060: af86 023c 50cd 5d3c e92b 253c 3d72 2f3c
00000070: bcee 133c 55c4 193c 6bf6 363c 08fa 3c3c
0.010656583 0.013223811 0.009796234 0.008091758 0.002257008 0.010307701 0.0120315645 0.009453039
0.008979437 0.009617619 0.008717956 0.002575511 0.00950056 0.009910352 0.010520711 0.011666307
0.012567579 0.002417015 0.01198384 0.005923695 0.004639234 0.01232031 0.0024476142 0.008986056
0.007966681 0.01353772 0.01008127 0.010708389 0.009029087 0.009385188 0.011167149 0.0115342215

exp_avg f4 [32]
00000000: f84e 213d 5b9d 323d 4d32 453d d593 5c3d
00000010: 8f3c cf3c 2239 173d e53d d53c ae80 f03c
00000020: ceac 523d 91f1 633d 6bd3 593d 964e d13c
00000030: 11b9 853c 68f0 823c ac4d 0b3d 1b99 2b3d
00000040: cc4e 073d b3fb dd3c 5691 1f3d 4986 9d3c
00000050: aa2c 293c 7f23 203d c198 e33c b037 0c3d
00000060: 6e9d 703d 842c c93c 5c69 023d 98aa 3a3d
00000070: f6c7 243d 5e43 4d3d a9c2 043d 7459 053d
0.03938195 0.043607097 0.048143674 0.05385192 0.025297431 0.03691972 0.02603049 0.029358234
0.05143433 0.055650298 0.05318014 0.025550168 0.016323598 0.015983775 0.03400962 0.04189406
0.03303413 0.027097559 0.038956963 0.019229071 0.01032559 0.03909635 0.0277828 0.034232795
0.058743887 0.02455736 0.03183876 0.045572847 0.04022976 0.050113074 0.032412205 0.032556012

exp_avg_sq f4 [32]
00000000: abe0 833c 54c9 a73c 5069 6f3c ae76 833c
00000010: bfd7 643b 959a f43b ebc4 963c 58f4 143c
00000020: 6149 963c bca5 743c 37a5 5a3c 658a 853b
00000030: cb8c 683c ea92 773c 05ba 853c be54 8f3c
00000040: fa9b a03c ac77 6e3b 30f3 953c 81cc 3b3c
00000050: 03dc 053c 03bd 983c f1c8 7b3b 6fb1 5f3c
00000060: 901a 8d3c 379d ac3c 76cd 763c 00a0 873c
00000070: cad9 5e3c 4fc2 6e3c 5b43 8d3c b8d3 003c
0.016098341 0.020481743 0.014612511 0.016047802 0.0034918634 0.0074647167 0.018404445 0.009091459
0.018345537 0.014932092 0.013345054 0.004075336 0.014193724 0.015110711 0.016324053 0.017496463
0.019605625 0.0036387248 0.018304437 0.011462332 0.008170131 0.018644815 0.003841933 0.013653143
0.01722458 0.02107106 0.015063634 0.016555786 0.01360173 0.014572694 0.017244032 0.007862978

exp_avg f4 [1, 32]
00000000: 2c70 20be b022 0dbe 7489 46be a4ab 3abe
00000010: e799 bdbd 0e96 17be aaf8 c1bd 1d68 19be
00000020: 7a2c 3ebe 4206 73be 2264 81be 561b a7bd
00000030: c821 95bd 18b3 97bd 17e4 0abe 48ea 24be
00000040: ff3a debd 0bac cabd c6db 0abe 93e2 d1bd
00000050: 693f 43bd 64ce 11be e3e4 adbd 8251 33be
00000060: cdcc 59be 3990 babd 062c 28be b738 46be
00000070: 639e 32be 6dbf 76be 6c85 02be f374 fcbd
-0.1566779 -0.13782763 -0.19388372 -0.18229538 -0.0925787 -0.14803335 -0.09471257 -0.14981122
-0.18571654 -0.23732856 -0.25271708 -0.08159511 -0.07281834 -0.07407206 -0.13563572 -0.16104996
-0.10851096 -0.09896096 -0.135604 -0.10248294 -0.047667895 -0.14238888 -0.08490922 -0.17511562
-0.21269532 -0.091095395 -0.16423044 -0.19357572 -0.17443232 -0.2409646 -0.12746209 -0.12326994

exp_avg_sq f4 [1, 32]
00000000: be1e 403e 831b 2a3e f201 713e 0a12 273e
00000010: 8a71 2d3d 1cab 083e b1e3 463e 42d0 253e
00000020: 3be2 443e 390d 593e 11db 6e3e d07c 183d
00000030: c137 573e f9a4 5f3e 944a 543e 1b0c 493e
00000040: 51d8 343e 81ca 2e3d d107 3a3e 9f5b 043e
00000050: 9b6a af3d d4f2 2b3e d8e1 fd3c c369 6c3e
00000060: 238b 2a3e 5c32 323e b375 653e a851 483e
00000070: d9a2 793e bb12 5a3e 1d2e 523e 8931 3c3e
0.18761727 0.16612057 0.23535898 0.16315475 0.042344607 0.13346523 0.19422795 0.16192725
0.19226925 0.2119645 0.23325755 0.037228405 0.21017362 0.21840276 0.20731574 0.19633524
0.17660643 0.04267359 0.18167044 0.12925576 0.08565255 0.1679185 0.03099148 0.2308722
0.16654639 0.17402023 0.2240818 0.195624 0.24378528 0.21296208 0.20525403 0.18378271
